phasic_policy_best.onnx (onnx, 46152 bytes, 10 tensors)

shared.0.weight f4 [64, 5]
0	0xbe233b2e	-0.15940544
1	0x3e02088b	0.12698571
2	0x3c554835	0.013017704
3	0x3a40a504	0.0007348808
4	0xbb7252c6	-0.0036975606
5	0xbe1e20bb	-0.15442173
6	0x3decec1b	0.11568471
7	0x3c563e4c	0.013076376
8	0xbb38bd91	-0.0028189162
9	0x3c0cd17e	0.008594869
10	0xbe2a8145	-0.16650875
11	0x3e072991	0.1319945
12	0x3c46e504	0.0121395625
13	0xba9c63a5	-0.0011931552
14	0xbb4f286b	-0.0031609784
15	0xbe24ad24	-0.16081673
16	0x3e071d83	0.13194852
17	0x3c4f7921	0.012663157
18	0xbb559970	-0.0032592677
19	0xbbf5929d	-0.0074942843
20	0xbe140529	-0.14455093
21	0x3dea318e	0.11435233
22	0x3c4c3377	0.012463442
23	0x371483dc	8.852188e-06
24	0xbba6eafe	-0.005093931
25	0xbe192d13	-0.149586
26	0x3de2fa55	0.11082903
27	0x3c479e21	0.012183697
28	0xb7963e32	-1.7910355e-05
29	0xbab4f723	-0.0013806563
30	0xbe29f417	-0.16597019
31	0x3dffc98a	0.124896124
32	0x3c3f8454	0.011689264
33	0xba13896a	-0.0005628081
34	0xba009fe3	-0.00049066375
35	0xbe182b33	-0.14860229
36	0x3e180936	0.14847264
37	0x3c46f12a	0.012142459
38	0xbaa95cf4	-0.0012921379
39	0x3afb7b6e	0.0019186565
40	0xbe281323	-0.1641355
41	0x3e1e744a	0.15474048
42	0x3c3ec816	0.011644384
43	0xbb2f09c2	-0.0026708697
44	0xbc5945f2	-0.013261305
45	0xbe1e5612	-0.1546252
46	0x3df5102f	0.119659774
47	0x3c39185b	0.011297311
48	0xba6951b4	-0.00089004193
49	0x3bf1c0f0	0.0073777363
50	0xbe1de370	-0.15418792
51	0x3e013265	0.1261688
52	0x3c392cee	0.011302216
53	0xbb215805	-0.0024619114
54	0x3b8ae257	0.0042384076
55	0xbe17103f	-0.14752291
56	0x3df77366	0.120825574
57	0x3c3d2fd1	0.011547045
58	0xbaa8480c	-0.0012838854
59	0xbafda60b	-0.0019351853
60	0xbe153d3c	-0.1457414
61	0x3e02bfe6	0.12768516
62	0x3c4769fc	0.012171265
63	0xbb719372	-0.0036861566
64	0xbbd39d6f	-0.0064579765
65	0xbe351ac9	-0.17685999
66	0x3e0df199	0.13861693
67	0x3c4bbd5e	0.012435285
68	0xbb526a7f	-0.0032106934
69	0xb86a91a6	-5.5925593e-05
70	0xbe25fca5	-0.16209657
71	0x3dfa23e5	0.122138776
72	0x3c3970f8	0.011318438
73	0xbb847c53	-0.004043141
74	0x39a2aad8	0.00031026336
75	0xbe261e82	-0.16222575
76	0x3e0112a3	0.12604766
77	0x3c49b244	0.012310568
78	0xbaf64370	-0.0018788408
79	0xbaa7a81a	-0.0012791187
80	0xbe0dd859	-0.13852061
81	0x3e218857	0.15774666
82	0x3c45330f	0.012036099
83	0xba8901ca	-0.0010452804
84	0xba1895b7	-0.0005820649
85	0xbe22ed02	-0.15910724
86	0x3dea1611	0.1142999
87	0x3c3a8e3e	0.011386452
88	0xbafa4490	-0.001909392
89	0x3a960482	0.0011445435
90	0xbe0f2ac1	-0.13981153
91	0x3dfcbc13	0.1234056
92	0x3c47e6b6	0.012201002
93	0xbb453ad6	-0.0030094883
94	0x3b08fedd	0.0020903863
95	0xbe1f8c9d	-0.15580983
96	0x3df90521	0.121591814
97	0x3c3e1104	0.0116007365
98	0xbb094749	-0.002094703
99	0xbb9acb13	-0.0047239154
100	0xbe344fb9	-0.17608537
101	0x3e205188	0.15656102
102	0x3c3b1bb2	0.011420177
103	0xbbaf26e0	-0.0053452104
104	0xbbf05dbb	-0.0073353923
105	0xbe315cc1	-0.17320539
106	0x3e0c67ed	0.1371152
107	0x3c4e6d1f	0.012599259
108	0xbb424ab8	-0.0029646587
109	0xbb106fa8	-0.0022039209
110	0xbe202625	-0.15639551
111	0x3e05f093	0.13080053
112	0x3c5e9ce1	0.0135872075
113	0xbb260d57	-0.002533754
114	0x3aea84e3	0.0017892387
115	0xbe416e9f	-0.18889855
116	0x3e219c7e	0.15782353
117	0x3c25ab97	0.010111711
118	0xba47ecd3	-0.0007626537
119	0xbc55603d	-0.013023433
120	0xbe21e2ea	-0.15809217
121	0x3e0bdfc3	0.13659577
122	0x3c4fe983	0.012689951
123	0xbacdbcec	-0.0015696562
124	0xbb7ab700	-0.003825605
125	0xbe2b97ff	-0.167572
126	0x3e02b6c3	0.1276503
127	0x3c4b0e70	0.012393579
128	0xba3cbd12	-0.00071998045
129	0x3a3c40f6	0.0007181311
130	0xbe3856d3	-0.18001871
131	0x3e0de5e6	0.1385723
132	0x3c4ef52a	0.012631694
133	0xbab82549	-0.0014049198
134	0xbc63a55b	-0.013894404
135	0xbe210d81	-0.15727808
136	0x3e089f64	0.13342053
137	0x3c3eb17f	0.011638998
138	0xbab57367	-0.0013843597
139	0x3ba009a4	0.0048839618
140	0xbe1297dd	-0.14315744
141	0x3df26fe5	0.118377484
142	0x3c4ade72	0.012382137
143	0xba770727	-0.0009423368
144	0x3ab95a7e	0.0014141349
145	0xbe361851	-0.17782713
146	0x3e14b4e8	0.14522135
147	0x3c2c9829	0.010534325
148	0xba2a13c6	-0.0006487932
149	0xbb83548c	-0.0040078815
150	0xbe12d601	-0.14339449
151	0x3e05308d	0.13006802
152	0x3c414bcf	0.011797859
153	0xbb15e93d	-0.0022874617
154	0x3b9499f9	0.0045349565
155	0xbe14e764	-0.14541394
156	0x3df1d7be	0.11808728
157	0x3c4b8686	0.01242221
158	0xba588f56	-0.0008261105
159	0xb9cae3c8	-0.00038698153
160	0xbe1ff458	-0.15620553
161	0x3df18a3a	0.11793943
162	0x3c4c25ff	0.012460231
163	0xbadb2cda	-0.0016721741
164	0xbb1578c9	-0.002280759
165	0xbe26a102	-0.16272357
166	0x3e029baf	0.12754701
167	0x3c4b0897	0.012392185
168	0xbb36bd21	-0.0027883726
169	0xbb23e1c2	-0.0025006388
170	0xbe332042	-0.17492774
171	0x3e1ef87b	0.15524475
172	0x3c362d3e	0.011119185
173	0xbae6fee4	-0.0017623571
174	0xbc082c37	-0.008311323
175	0xbe2f3977	-0.17111765
176	0x3e053b22	0.13010839
177	0x3c535e95	0.012900968
178	0xbb3fb615	-0.0029252816
179	0xba6ea504	-0.0009103569
180	0xbe193c0b	-0.14964311
181	0x3df1e975	0.118121065
182	0x3c57885f	0.013155072
183	0xbb025a04	-0.001989008
184	0x3b34caec	0.0027586771
185	0xbe2226d3	-0.15835123
186	0x3e01c02d	0.12670965
187	0x3c46ca67	0.012133217
188	0xb9db6632	-0.00041847076
189	0xbb4ca0b4	-0.0031223716
190	0xbe1a9f2c	-0.15099782
191	0x3dfd6135	0.123720564
192	0x3c59c4ee	0.013291581
193	0xbb4114a9	-0.0029461777
194	0xbb360e9d	-0.0027779706
195	0xbe21f372	-0.15815523
196	0x3e00e37d	0.1258678
197	0x3c50c53a	0.012742335
198	0xb9fb88aa	-0.00047976273
199	0xbac53aac	-0.0015047393
200	0xbe216694	-0.15761787
201	0x3e2ab360	0.16669989
202	0x3c349de8	0.011023976
203	0xbaa3a679	-0.0012485526
204	0x3a2cf5e0	0.00065979175
205	0xbe184db3	-0.1487339
206	0x3e02cad6	0.12772688
207	0x3c4d0d3c	0.012515362
208	0x39a6792e	0.00031752273
209	0x3b0ed787	0.0021795945
210	0x3dbd461b	0.09241887
211	0x3e8733d8	0.2640674
212	0x3b9c3e4f	0.00476817
213	0xbbfedfb3	-0.007778132
214	0x3d15d1aa	0.036576904
215	0xbe17df35	-0.1483124
216	0x3df2b90f	0.118517034
217	0x3c48cd23	0.01225594
218	0xbaa3d4d3	-0.001249934
219	0xbb190794	-0.0023350464
220	0xbe168318	-0.14698446
221	0x3de73422	0.112892404
222	0x3c4bca9c	0.012438443
223	0x3a7ae748	0.0009571207
224	0x3c686a28	0.014185466
225	0xbe0e52c9	-0.13898768
226	0x3df9177e	0.12162684
227	0x3c45f37c	0.012081977
228	0xbb3365a2	-0.002737381
229	0x3bebad56	0.007192294
230	0xbe109d54	-0.14122516
231	0x3df3cbb9	0.119040914
232	0x3c3a8359	0.011383855
233	0xbb0f33de	-0.0021850984
234	0x3b8a0795	0.0042123296
235	0xbe24ed38	-0.16106117
236	0x3de73863	0.11290052
237	0x3c4c42ba	0.012467081
238	0xb951d2c1	-0.00020010305
239	0x3a18f89e	0.00058353867
240	0xb9b10bb1	-0.00033768782
241	0xb8235d97	-3.894939e-05
242	0xba0e31b5	-0.0005424277
243	0x390ab533	0.00013228208
244	0xb8ab8b86	-8.179904e-05
245	0xbe2b8bbb	-0.16752522
246	0x3e17ed74	0.14836675
247	0x3c45f31e	0.012081889
248	0xbb6b0698	-0.0035862084
249	0xbaff7472	-0.001948966
250	0xbe27da1c	-0.16391796
251	0x3e03fcfa	0.12889472
252	0x3c4665c3	0.012109223
253	0xbb1a3934	-0.002353263
254	0xba8a19ee	-0.0010536292
255	0xbe45113c	-0.19244856

shared.0.bias f4 [64]
0	0x3d48da56	0.049036346
1	0x3d633841	0.05547357
2	0x3d470471	0.04858822
3	0x3d4ec43a	0.050480105
4	0x3d533446	0.051563524
5	0x3d58f71e	0.052970044
6	0x3d549502	0.051899917
7	0x3d46745f	0.048450824
8	0x3d427ff4	0.047485307
9	0x3d5583a5	0.0521275
10	0x3d558174	0.05212541
11	0x3d5812a6	0.05275216
12	0x3d548db8	0.051892966
13	0x3d43b25f	0.04777753
14	0x3d5e3f0a	0.054259337
15	0x3d410ccf	0.047131356
16	0x3d42f70e	0.04759889
17	0x3d4ef704	0.05052854
18	0x3d57b83c	0.052665934
19	0x3d599f4f	0.053130444
20	0x3d3a04e8	0.045414835
21	0x3d4b1a62	0.049585707
22	0x3d4e7e13	0.050413202
23	0x3d30a77a	0.043128468
24	0x3d43af03	0.047774326
25	0x3d3f3037	0.04667684
26	0x3d37af98	0.044845194
27	0x3d49dc87	0.049282577
28	0x3d51eded	0.051252294
29	0x3d4ac8c8	0.049507886
30	0x3d4ebf2f	0.050475296
31	0x3d5a20d6	0.05325397
32	0x3d543ab5	0.0518138
33	0x3d4a6c13	0.049419474
34	0x3d370f6b	0.044692438
35	0x3d3e9731	0.046530906
36	0x3d52c46a	0.051456846
37	0x3d4099eb	0.047021788
38	0x3d52aff5	0.051437337
39	0x3d531bc6	0.05154016
40	0x3d3adc6e	0.045620374
41	0x3d4e5e69	0.050383005
42	0x3cf213a3	0.02955038
43	0x3d5bc0ce	0.05365067
44	0x3d5fa704	0.054602638
45	0x3d506091	0.050873343
46	0x3d5b4868	0.05353585
47	0x3d4a8607	0.049444225
48	0xba283401	-0.00064164406
49	0x3d43e53c	0.047826037
50	0x3d4c7fea	0.049926676
51	0x3d2bf1e7	0.041978743
52	0x3d5076da	0.050894596
53	0x3d4cc369	0.049991045
54	0x3d3d27b1	0.04618043
55	0x3d3b2ec3	0.045698892
56	0x3d5af331	0.05345458
57	0x3d361efd	0.044463146
58	0x3d44c6e1	0.04804123
59	0x3d5997bf	0.053123232
60	0x3d4d1033	0.050064277
61	0x3d55aabc	0.052164778
62	0x3d45a677	0.048254456
63	0x3d4c50ef	0.04988187

shared.3.weight f4 [64, 64]
0	0xba693500	-0.0008896142
1	0xbb228cc7	-0.0024803148
2	0xbb0d29fb	-0.0021539915
3	0xba3609d6	-0.00069442147
4	0x39c27e87	0.00037096834
5	0x3a341d5e	0.0006870831
6	0x39fcd5c2	0.00048224448
7	0xbafbbd2b	-0.0019206157
8	0x3a813d9a	0.0009860278
9	0x39a38ec5	0.00031196154
10	0x391bb670	0.00014849915
11	0xbad403f4	-0.0016175495
12	0xba438ce8	-0.00074596563
13	0xbad00fad	-0.0015873812
14	0xba354405	-0.0006914738
15	0xb8ed1a4b	-0.00011305938
16	0xb94a6793	-0.00019302806
17	0xba3cbbba	-0.00071996043
18	0xbb26db7e	-0.0025460417
19	0x390584c7	0.00012733332
20	0xbaf8e06b	-0.001898778
21	0x3a162ca8	0.00057287
22	0xb9974d3e	-0.00028858514
23	0x39a61967	0.00031680914
24	0x3a758401	0.00093656784
25	0x3912fd56	0.0001401802
26	0xb9efe5ba	-0.00045756792
27	0x3a28ca71	0.00064388575
28	0x3a382563	0.0007024614
29	0xb9089432	-0.00013025178
30	0xba9c0854	-0.0011904337
31	0xbb1d5184	-0.0024004886
32	0x39074a9c	0.00012902397
33	0xba3d0883	-0.0007211046
34	0xba8c591d	-0.001070771
35	0xba313f14	-0.00067614135
36	0x3aa2c65e	0.0012418737
37	0x3a596603	0.0008293094
38	0xbadb8075	-0.0016746657
39	0x38967f81	7.176307e-05
40	0xba228387	-0.00061994087
41	0xba7146bc	-0.00092039607
42	0x38d25e39	0.00010031131
43	0xba57b8db	-0.0008229145
44	0x37650815	1.3651345e-05
45	0x3a7782df	0.00094418036
46	0xbaebe8bf	-0.0017998441
47	0x3a220671	0.00061807694
48	0x3875722f	5.8518894e-05
49	0xbafd294c	-0.0019314676
50	0xb913c0d2	-0.00014090844
51	0xbb01c3f7	-0.0019800642
52	0x3ac70b54	0.0015185871
53	0x3a4a2921	0.0007711817
54	0x3ab8016c	0.001403851
55	0x3847fe0c	4.7681897e-05
56	0xb93d7c2c	-0.00018070702
57	0x3aa24593	0.0012380354
58	0xba95575d	-0.0011393834
59	0xbad5dd94	-0.0016316646
60	0x3a8c06d1	0.0010683184
61	0xb94e20d1	-0.00019657916
62	0xb98aee27	-0.00026498848
63	0x3a845f63	0.0010099228
64	0xbb4888aa	-0.0030599036
65	0xbb0447bf	-0.0020184366
66	0x391a14cb	0.0001469433
67	0xba904c1c	-0.001100901
68	0x3a7c2ac7	0.00096194114
69	0xb81a0249	-3.671859e-05
70	0xbab3149a	-0.0013662756
71	0xba83f994	-0.0010068887
72	0xbab24a52	-0.0013602471
73	0x389c46fc	7.4518815e-05
74	0x3a0d40b1	0.0005388363
75	0xb9d938e8	-0.00041431864
76	0xb7f5a20c	-2.9281735e-05
77	0xbb01a6b2	-0.0019783196
78	0xba5b2596	-0.0008359788
79	0x3a2a9ea0	0.00065086223
80	0x3a21b026	0.0006167911
81	0xbadc6cba	-0.0016817071
82	0x3a17b6c9	0.000578743
83	0xbae36302	-0.0017348232
84	0xb92f30a1	-0.00016707416
85	0x39869ba8	0.00025674445
86	0xb9e9367d	-0.0004448182
87	0x399061be	0.00027538644
88	0xbad7a307	-0.0016451784
89	0x39d6bb12	0.0004095664
90	0xba229c22	-0.0006203075
91	0xba00eb67	-0.000491789
92	0x3a973bec	0.0011538244
93	0x39f87cdd	0.00047395276
94	0x39bb7d0c	0.00035760587
95	0xb9827935	-0.00024885839
96	0xbb1d57b4	-0.0024008574
97	0xb99b5776	-0.00029629067
98	0x3a07d91a	0.0005182192
99	0xbadd38c5	-0.001687788
100	0xba3e5387	-0.00072603713
101	0x3a921d30	0.0011147615
102	0x39ed0e93	0.0004521502
103	0xbb03799e	-0.0020061503
104	0xbb4bcbe4	-0.003109687
105	0x3a8d4eeb	0.0010780966
106	0xb9dd599f	-0.00042219178
107	0xbb087a35	-0.0020824794
108	0xbad7de91	-0.0016469528
109	0xba277098	-0.0006387322
110	0x3a39b7a4	0.00070845545
111	0xbb0fe1c5	-0.0021954637
112	0xb9a217ec	-0.0003091687
113	0x3a7e7702	0.00097070646
114	0xb9e58a30	-0.0004378124
115	0xb9f7a2dc	-0.0004723285
116	0x3abccd7e	0.0014404503
117	0xbb14a937	-0.0022683868
118	0xbb43b1b2	-0.0029860553
119	0xbb07bec1	-0.0020713063
120	0xb98fe7a3	-0.00027447668
121	0xb9fb051f	-0.00047878266
122	0xbb045472	-0.0020191935
123	0xbb03e347	-0.0020124482
124	0xbb4c0a0b	-0.0031133916
125	0xbacbe2eb	-0.0015555298
126	0xbaafd7c2	-0.0013415741
127	0xbaad326d	-0.0013213881
128	0x3dbbd629	0.09171707
129	0x3da063b5	0.078315176
130	0x3dbab68e	0.09116851
131	0x3dbd167d	0.09232805
132	0x3d95c9d1	0.07313884
133	0x3d94c288	0.072636664
134	0x3dc0e4d2	0.09418644
135	0x3dbbf155	0.0917689
136	0x3de374bd	0.111062504
137	0x3da94dd3	0.08266797
138	0x3db7e9c6	0.089801356
139	0x3da03651	0.0782286
140	0x3da80905	0.08204845
141	0x3ddf4f9e	0.10903858
142	0x3dc75db4	0.09734669
143	0x3db7373b	0.08946081
144	0x3dd7dede	0.105405554
145	0x3da38114	0.07983604
146	0x3d91c52b	0.07117685
147	0x3db73e19	0.08947391
148	0x3df4f866	0.11961441
149	0x3dee7a44	0.11644414
150	0x3dbc0dff	0.09182357
151	0x3e0ceefa	0.13763037
152	0x3db8ff1e	0.09033035
153	0x3dbf26c9	0.093335696
154	0x3debb238	0.11508602
155	0x3dc5d360	0.09659457
156	0x3d9700cc	0.07373199
157	0x3df5e1b2	0.120059386
158	0x3db15121	0.08658052
159	0x3d8f10a9	0.069855995
160	0x3d9e05be	0.07715939
161	0x3db7b1be	0.089694485
162	0x3deef083	0.11666968
163	0x3dd2f79a	0.103011325
164	0x3d9db2a9	0.07700092
165	0x3db80c37	0.08986705
166	0x3dae1764	0.08500555
167	0x3dc1e44a	0.09467371
168	0x3defcf0b	0.11709412
169	0x3da13d27	0.07872992
170	0x3e07b442	0.13252357
171	0x3d960d41	0.07326747
172	0x3d9cc217	0.07654207
173	0x3da24297	0.07922857
174	0x3da37c3d	0.07982681
175	0x3da7a793	0.08186259
176	0x3ab53593	0.001382517
177	0x3de13d1e	0.10997985
178	0x3dca83b1	0.098883994
179	0x3e023b1d	0.12717862
180	0x3dc2a7c7	0.09504657
181	0x3dca0b4d	0.09865437
182	0x3e063493	0.13105993
183	0x3dc72332	0.0972351
184	0x3d9abc74	0.07555476
185	0x3dbb9621	0.09159494
186	0x3dd7d1cb	0.10538062
187	0x3d966b10	0.07344639
188	0x3db9e01f	0.09075951
189	0x3daba2be	0.0838065
190	0x3dc94381	0.098273285
191	0x3dc7af40	0.09750223
192	0xba465722	-0.00075660844
193	0xba8ab1ee	-0.0010581592
194	0xbaffe6ce	-0.0019523741
195	0x39a4de84	0.00031446305
196	0x39ba3069	0.00035512753
197	0xbb12a44f	-0.0022375768
198	0x3a88db81	0.0010441394
199	0xbadcda29	-0.0016849685
200	0xbad71bc4	-0.0016411473
201	0x3a2d198a	0.0006603232
202	0x39afcfcb	0.0003353342
203	0x3a3477dc	0.00068843155
204	0xba8f8241	-0.0010948853
205	0x38aebd84	8.3322666e-05
206	0xbb01d9a1	-0.0019813555
207	0xba913769	-0.0011079136
208	0x3a93cac3	0.0011275638
209	0xbace71c9	-0.0015750463
210	0xba63e949	-0.0008694125
211	0xbb0788f8	-0.0020681005
212	0x3ad68437	0.0016366307
213	0xba12fdbf	-0.0005607269
214	0xba470f67	-0.00075935427
215	0x38ea0f98	0.00011160894
216	0x38b4cb8f	8.6209846e-05
217	0xbb1c9471	-0.002389219
218	0xba430c58	-0.0007440499
219	0x3ada5608	0.0016657719
220	0x3828915f	4.018971e-05
221	0x3a4502b9	0.00075153593
222	0x39fcfae6	0.0004825212
223	0xbaf255ce	-0.0018488707
224	0x39f492ca	0.00046648673
225	0x3a4f6f00	0.00079129636
226	0xbb0435c8	-0.0020173658
227	0xbaa6e6b5	-0.0012733551
228	0x3a527de6	0.00080296246
229	0xba3c5354	-0.0007184048
230	0xbaedecc4	-0.0018152227
231	0x3a6be3f3	0.00089985057
232	0x3a41ddf1	0.00073954376
233	0xb9bcde11	-0.00036023607
234	0x3a1ceab6	0.00059859024
235	0xba9f3036	-0.0012145105
236	0xb98c90ed	-0.0002681086
237	0xbb0ed814	-0.0021796273
238	0x37921962	1.7416376e-05
239	0xb9bf79f1	-0.00036521212
240	0xb92df37e	-0.00016589274
241	0xb975ea05	-0.000234522
242	0xbb08a535	-0.0020850424
243	0x38e8469e	0.000110757755
244	0xbae6ca58	-0.001760791
245	0x3a39041d	0.0007057803
246	0x3ab1524f	0.0013528558
247	0xbaaa2926	-0.0012982234
248	0x3a770f01	0.0009424538
249	0x3aade275	0.0013266342
250	0x391d2a8d	0.00014988538
251	0xba0b290d	-0.0005308546
252	0x3a77a56f	0.0009446954
253	0x39d42c1f	0.00040468664
254	0xba29a144	-0.0006470869
255	0xbaacf16d	-0.0013194509

shared.3.bias f4 [64]
0	0xba1aa9bb	-0.00058999256
1	0xba1bbb71	-0.00059407117
2	0x3e2da3d4	0.16957027
3	0xba1a721a	-0.0005891636
4	0x3d491d79	0.049100373
5	0x3e895a2d	0.2682661
6	0x3e2b3aae	0.16721603
7	0xbac11ec0	-0.0014733896
8	0x3e275c08	0.16343701
9	0x3e27bb8a	0.16380134
10	0xba1a36e1	-0.00058828114
11	0xba1a2d39	-0.00058813725
12	0xba1a30ae	-0.00058818876
13	0x3cfd62c9	0.030930893
14	0x3e295c9d	0.16539235
15	0xbb20cd84	-0.002453656
16	0xba1b751c	-0.00059302314
17	0x3e2e1626	0.17000636
18	0x3e2c066e	0.16799328
19	0x3e269db8	0.16271102
20	0x3e2cd204	0.1687699
21	0x3e2ed354	0.17072803
22	0x3e2eea8c	0.1708166
23	0xbb2fde0a	-0.0026835226
24	0x3e2e6410	0.17030358
25	0xba1a24c9	-0.0005880115
26	0xba195140	-0.0005848594
27	0xba1c3deb	-0.0005960154
28	0x3e2d03a8	0.16895926
29	0x3e292a01	0.1651993
30	0x3e2c523a	0.16828242
31	0x3e2b86df	0.16750668
32	0xba1a35c4	-0.00058826455
33	0xba2aac59	-0.0006510667
34	0x3e2ce47a	0.16884032
35	0x3e27848b	0.16359155
36	0x3e2a6db2	0.16643408
37	0x3e9442d6	0.28957242
38	0xba19d39b	-0.00058680185
39	0xba1a23ce	-0.0005879969
40	0xba1a3790	-0.0005882913
41	0x3e277122	0.1635175
42	0x3e222c2d	0.15837164
43	0x3e2b646f	0.16737531
44	0xba3f8dec	-0.000730722
45	0xba1a1687	-0.00058779906
46	0x3e28d80d	0.16488667
47	0x3e29347a	0.16523924
48	0xba1a54a5	-0.0005887247
49	0x3e1f8beb	0.15580718
50	0x3e7e07e4	0.24807698
51	0x3e27c804	0.16384894
52	0x3e294061	0.16528465
53	0x3e93d711	0.2887502
54	0x3e276ccf	0.16350101
55	0x3e2b1adf	0.1670947
56	0xbb58767b	-0.0033029604
57	0x3e2909dc	0.16507667
58	0xba1ba692	-0.00059376017
59	0xba1959e2	-0.00058498804
60	0xba1a35ac	-0.00058826315
61	0x3e2d7244	0.1693812
62	0xba1a0931	-0.00058760034
63	0x3e2a3d81	0.16625024

policy_head.0.weight f4 [1, 64]
0	0x3a9f4b90	0.0012153257
1	0x3ad0657b	0.0015899384
2	0xbec82297	-0.3908889
3	0x3a2664b0	0.0006347401
4	0xbd891150	-0.06692755
5	0xbf468428	-0.77545404
6	0xbec8dcb4	-0.39230883
7	0x39cb1d9e	0.00038741244
8	0xbec97d6d	-0.39353505
9	0xbec71c16	-0.38888615
10	0x3ab50008	0.0013809213
11	0x3b0628e3	0.0020471148
12	0x3a2bd10d	0.00065542833
13	0xbd81e8ea	-0.06343253
14	0xbec8e8ef	-0.39240214
15	0x39615e4e	0.00021492803
16	0x3a3ce814	0.0007206213
17	0xbec8e485	-0.39236847
18	0xbec9294c	-0.3928932
19	0xbec6c963	-0.3882552
20	0xbec77951	-0.38959745
21	0xbec88fde	-0.39172262
22	0xbec95802	-0.39324957
23	0x3b004e5f	0.0019577963
24	0xbec91c44	-0.39279377
25	0x3b164bf2	0.002293345
26	0x39bef961	0.00036425426
27	0x3a07127b	0.0005152595
28	0xbec8efd3	-0.3924547
29	0xbec915fb	-0.39274582
30	0xbec970e3	-0.39343938
31	0xbec804ab	-0.3906606
32	0x3a2bb37a	0.00065498764
33	0x3a56f309	0.0008199667
34	0xbec92306	-0.39284533
35	0xbec95241	-0.39320567
36	0xbec8951a	-0.39176255
37	0xbf4fd97e	-0.8119124
38	0xba0c5582	-0.0005353318
39	0x3aaddf7d	0.0013265457
40	0x3afdd6a9	0.0019366342
41	0xbec72ad0	-0.3889985
42	0xbec844f2	-0.391151
43	0xbec81e3b	-0.39085564
44	0x3a1360f8	0.00056220545
45	0x3979b250	0.00023812917
46	0xbec9d964	-0.39423668
47	0xbec8861f	-0.39164826
48	0x3a203d3e	0.00061126414
49	0xbec99b49	-0.39376286
50	0xbf275cb7	-0.65375847
51	0xbec78535	-0.38968816
52	0xbec7a5e1	-0.38993743
53	0xbf4ffbd9	-0.81243664
54	0xbec94388	-0.39309335
55	0xbec9b2c5	-0.39394203
56	0x3b150aa5	0.002274194
57	0xbec84ec1	-0.39122584
58	0x3adc6c7b	0.0016816998
59	0x3a979e17	0.00115675
60	0x3afdaf26	0.0019354566
61	0xbec8a43e	-0.39187807
62	0x3abd23fa	0.0014430278
63	0xbeca56ef	-0.3951945

value_head.0.weight f4 [64, 64]
0	0xbac69d2b	-0.0015153041
1	0xb8a2583c	-7.741197e-05
2	0x3d034b64	0.03205432
3	0x3ae45bf4	0.0017422424
4	0x3d654b8e	0.055980258
5	0x3cdb3669	0.026759343
6	0x3d07d780	0.0331645
7	0xbace2af1	-0.001572935
8	0x3d07aa55	0.033121426
9	0x3d106025	0.03524794
10	0x39274a4e	0.00015954042
11	0x3a6aa88f	0.0008951509
12	0x3a6b12eb	0.00089673576
13	0x3d8347e5	0.06410197
14	0x3d042b25	0.03226771
15	0xbabcf4c2	-0.0014416205
16	0x3a034c26	0.00050086004
17	0x3cfcb516	0.030848067
18	0x3d0fda0b	0.03512005
19	0x3d0ee6ee	0.0348882
20	0x3d0b702b	0.03404252
21	0x3d0e8671	0.034796182
22	0x3d05c0b5	0.032654483
23	0x3b6edd4c	0.0036447821
24	0x3d0eb016	0.034835897
25	0xba5f7c18	-0.00085252663
26	0x39734ce0	0.00023202924
27	0x3ae4274b	0.001740673
28	0x3d0cf691	0.03441483
29	0x3d028162	0.03186167
30	0x3d037632	0.03209514
31	0x3d0efb2e	0.034907512
32	0xbb07621e	-0.0020657848
33	0x3a0d72e7	0.0005395845
34	0x3d09980a	0.03359226
35	0x3d13a165	0.03604259
36	0x3d0f529e	0.0349909
37	0x3cd8635d	0.026414568
38	0xbb06ac5c	-0.0020549512
39	0xb9472473	-0.00018991697
40	0x3a399777	0.000707976
41	0x3d0bc75e	0.03412568
42	0x3d123708	0.035697013
43	0x3d09694b	0.03354768
44	0xb95b14ed	-0.00020893263
45	0x3a8221ea	0.000992832
46	0x3d05a411	0.03262717
47	0x3d0991a2	0.033586152
48	0x39f27bb9	0.00046250017
49	0x3d11c182	0.035584934
50	0x3cd45bc3	0.025922662
51	0x3d01bb2e	0.03167265
52	0x3d11387a	0.03545425
53	0x3cbcc5f2	0.023043606
54	0x3d129c98	0.03579387
55	0x3d07db8f	0.03316837
56	0xbac91f27	-0.0015344367
57	0x3d0d7d6d	0.034543443
58	0xba2eb1e1	-0.0006664079
59	0x39c7ae51	0.00038086114
60	0x3a3911f2	0.0007059864
61	0x3d0b6480	0.03403139
62	0xb871f03a	-5.7682606e-05
63	0x3d0594f2	0.03261275
64	0xba5aa780	-0.00083409995
65	0xb9be04f0	-0.00036243303
66	0x3d00fc2a	0.031490482
67	0xba7dae27	-0.0009677135
68	0x3d627c1f	0.055294152
69	0x3cc6dc6a	0.024275023
70	0x3d08f00e	0.03343206
71	0xb9629823	-0.00021609715
72	0x3d0e29a6	0.034707688
73	0x3d0a7f5c	0.033812866
74	0x3a1b9108	0.0005934392
75	0x3a1034db	0.000550104
76	0x3aa39924	0.0012481553
77	0x3d85d5c2	0.06534912
78	0x3d0389c7	0.032113817
79	0xbb08f8ed	-0.0020900324
80	0x3ad056eb	0.0015895044
81	0x3d042487	0.032261398
82	0x3d08bfb0	0.033385932
83	0x3d0c323b	0.03422759
84	0x3d04759f	0.032338735
85	0x3d0fd92b	0.035119217
86	0x3d03fe19	0.03222475
87	0x3977de28	0.00023638515
88	0x3d0b394a	0.033990182
89	0xba25cb84	-0.00063245767
90	0x38fdd443	0.00012103517
91	0xbb006430	-0.0019590966
92	0x3cfcb0ea	0.030846078
93	0x3d0233c3	0.031787645
94	0x3d0e2d9c	0.034711465
95	0x3d093f67	0.03350773
96	0x3b08966e	0.0020841616
97	0x3ab34a29	0.0013678718
98	0x3d021415	0.031757433
99	0x3d0bbe1e	0.034116857
100	0x3d081ee0	0.03323257
101	0x3cc1d95b	0.023663213
102	0x39ec2655	0.00045041987
103	0xb9eb8616	-0.00044922595
104	0xbac3bea4	-0.0014934135
105	0x3d09e700	0.033667564
106	0x3d11a8ad	0.035561252
107	0x3d0851e5	0.033281226
108	0xba8f144a	-0.0010916081
109	0x3ac03645	0.0014664611
110	0x3d095d53	0.033536267
111	0x3d0c3af1	0.0342359
112	0xb998dfdc	-0.00029158487
113	0x3d16928f	0.036760863
114	0x3ce809ec	0.028325044
115	0x3d0c5175	0.03425737
116	0x3d08798d	0.033319045
117	0x3cc3c302	0.023896698
118	0x3d04d302	0.032427795
119	0x3d07c557	0.033147182
120	0xbad1663c	-0.0015975903
121	0x3d0a699f	0.033792134
122	0xb836fdc4	-4.362852e-05
123	0x36b41f21	5.368042e-06
124	0xbac05838	-0.0014674729
125	0x3d0b7140	0.03404355
126	0xb98f1d9a	-0.0002729714
127	0x3d01acdc	0.031658992
128	0xb8f1c0f4	-0.00011527716
129	0xb9a877ae	-0.00032132625
130	0xbcdf05b8	-0.027224407
131	0xba986168	-0.0011625709
132	0xbd54a484	-0.051914707
133	0xbcc3fd61	-0.023924531
134	0xbcf723ae	-0.03016838
135	0x3afd7a88	0.0019338885
136	0xbced1ff1	-0.028945895
137	0xbcdddabc	-0.02708184
138	0x3ad86309	0.0016509007
139	0x3afeaa37	0.001942939
140	0xba944d41	-0.0011314527
141	0xbd72b874	-0.05925794
142	0xbd01e74c	-0.031714723
143	0x3955c2b6	0.00020385798
144	0xbab65ad4	-0.0013912567
145	0xbce08487	-0.027406944
146	0xbce1d282	-0.027566198
147	0xbcf119ad	-0.029431188
148	0xbceb7532	-0.028742407
149	0xbce508ed	-0.027958358
150	0xbcd48930	-0.025944322
151	0x3af1f387	0.0018459418
152	0xbce76afd	-0.028249258
153	0xbaabffd6	-0.001312251
154	0xba608cc7	-0.00085658993
155	0x39bfe7e5	0.00036603134
156	0xbcf46c51	-0.029836806
157	0xbcea9727	-0.028636528
158	0xbce4d3cc	-0.027933024
159	0xbcf3b8a3	-0.029751128
160	0xbae839f3	-0.0017717466
161	0x3aa3e429	0.001250391
162	0xbced4da0	-0.028967679
163	0xbcf57eda	-0.029967714
164	0xbcf272a4	-0.02959568
165	0xbcb8212b	-0.022476753
166	0xbaf6ec3c	-0.0018838714
167	0xba5a7a84	-0.0008334296
168	0x3a5548a6	0.00081361306
169	0xbcfa2d1b	-0.030539086
170	0xbcec559d	-0.028849417
171	0xbcfb5318	-0.03067927
172	0x3ada2c41	0.0016645269
173	0x3af757e9	0.0018870804
174	0xbce91572	-0.028452609
175	0xbce83dff	-0.028349875
176	0xb9a85d68	-0.0003211305
177	0xbd020b67	-0.031749155
178	0xbcd6a5fb	-0.026202193
179	0xbce971ea	-0.028496701
180	0xbcec7f70	-0.02886936
181	0xbcb35cdb	-0.021894863
182	0xbcfa0fb1	-0.03052506
183	0xbcddc70b	-0.02707245
184	0x39f58df3	0.00046835802
185	0xbcde39ae	-0.027127113
186	0x39a9a6fb	0.00032358602
187	0x3af3916e	0.001858277
188	0xba9867b9	-0.0011627591
189	0xbcf60675	-0.030032376
190	0xba958bd0	-0.0011409465
191	0xbcfe0828	-0.031009749
192	0xba900ccc	-0.0010990142
193	0xbaf09763	-0.0018355664
194	0x3d02c536	0.031926356
195	0xba16c7ef	-0.00057518383
196	0x3d610484	0.054935947
197	0x3cdc8ae5	0.026921699
198	0x3d0b59a0	0.03402102
199	0xbac60626	-0.0015108034
200	0x3d07331a	0.03300772
201	0x3d0e08a7	0.03467622
202	0xbae17141	-0.001719989
203	0x3af4bfe7	0.0018672914
204	0x3aa51388	0.0012594322
205	0x3d7e61e6	0.062105082
206	0x3d0b07c3	0.03394295
207	0xbb05318e	-0.0020323726
208	0xbabecd37	-0.0014557008
209	0x3d006f9c	0.03135644
210	0x3d0f575a	0.034995414
211	0x3d08c532	0.033391185
212	0x3d036c39	0.03208563
213	0x3d0e7b37	0.034785476
214	0x3d0b2b77	0.033977
215	0x3b1e382b	0.0024142365
216	0x3d0dd0a7	0.034622815
217	0xbabb5681	-0.0014292748
218	0x3a0e1a68	0.0005420805
219	0x390fcd38	0.00013713993
220	0x3cfd9e05	0.030959139
221	0x3d0c36e9	0.034232054
222	0x3d026b6c	0.031840727
223	0x3d08d83b	0.03340934
224	0x3ae2f1d2	0.00173145
225	0x3ad82fbd	0.0016493719
226	0x3d0b023d	0.03393768
227	0x3d07ba63	0.033136737
228	0x3d0a1a51	0.033716504
229	0x3cd9e38f	0.026597766
230	0xbaa1c900	-0.0012343228
231	0xbaf96238	-0.0019026464
232	0xba3193ed	-0.0006774057
233	0x3d149b00	0.036280632
234	0x3d14b930	0.03630942
235	0x3d07194a	0.032983102
236	0x3aa6e8ce	0.0012734176
237	0x3a3d9769	0.00072323397
238	0x3d08221d	0.033235658
239	0x3d08ba01	0.033380512
240	0xba7b5bb9	-0.0009588558
241	0x3d0dd2b8	0.034624785
242	0x3ce3053d	0.027712459
243	0x3d0c054f	0.03418475
244	0x3d08835d	0.033328403
245	0x3cd6d544	0.02622474
246	0x3d109764	0.035300627
247	0x3cff5ea5	0.03117306
248	0xbaf53cd7	-0.0018710148
249	0x3cff40e2	0.031158868
250	0x3ad6d600	0.0016390681
251	0x3aae17a8	0.0013282197
252	0x39c8ec5b	0.0003832307
253	0x3d05eecc	0.032698438
254	0x3a9995ed	0.0011717655
255	0x3d08f4e4	0.03343667

value_head.0.bias f4 [64]
0	0x3f81018b	1.0078596
1	0x3f810634	1.0080018
2	0xbf81c83d	-1.0139233
3	0x3f810411	1.0079366
4	0x3f811013	1.008303
5	0xbf81ba24	-1.0134931
6	0xbf81b717	-1.0134
7	0x3f80fd30	1.0077267
8	0xbf81a378	-1.0128012
9	0x3f81049f	1.0079535
10	0x3f80fcc3	1.0077137
11	0xbf8179fe	-1.0115354
12	0xbf81c3b2	-1.0137846
13	0xbf8195dd	-1.012386
14	0x3f80e72a	1.0070546
15	0x3f80fb86	1.0076759
16	0xbf81917f	-1.0122527
17	0x3f80fc43	1.0076984
18	0xbf81b73d	-1.0134045
19	0x3f810deb	1.0082372
20	0xbf81b38a	-1.0132916
21	0xbf81b736	-1.0134037
22	0x3f80fab5	1.007651
23	0x3f80f6c8	1.0075312
24	0x3f80ec5f	1.0072135
25	0xbf81cf9e	-1.0141485
26	0x3f810185	1.0078589
27	0xbf81bf3a	-1.0136483
28	0xbf81c2bd	-1.0137554
29	0xbf823723	-1.0173076
30	0xbf81cb47	-1.014016
31	0x3f80fa87	1.0076455
32	0xbf81d29d	-1.0142399
33	0xbf81b31f	-1.0132788
34	0xbf8166fb	-1.0109552
35	0xbf81d8f1	-1.014433
36	0xbf81deef	-1.0146159
37	0x3f81006f	1.0078257
38	0xbf81caee	-1.0140054
39	0xbf818f11	-1.0121785
40	0xbf8208c3	-1.0158924
41	0xbf81b489	-1.013322
42	0x3f80e841	1.0070878
43	0x3f80f94c	1.0076079
44	0xbf81b756	-1.0134075
45	0x3f810ef9	1.0082694
46	0x3f80f175	1.0073687
47	0xbf8176d8	-1.0114393
48	0x3f8107fc	1.0080562
49	0xbf81e5be	-1.0148237
50	0x3f810f8b	1.0082868
51	0x3f810e13	1.008242
52	0x3f810259	1.0078841
53	0x3f810768	1.0080385
54	0x3f80f6db	1.0075334
55	0xbf81b111	-1.0132161
56	0xbf81caa3	-1.0139965
57	0x3f8119f6	1.0086048
58	0xbf81c91c	-1.0139499
59	0x3f8104de	1.007961
60	0x3f8102a0	1.0078926
61	0x3f810634	1.0080018
62	0x3f80f672	1.0075209
63	0x3f80faf9	1.0076591

value_head.2.weight f4 [32, 64]
0	0xbe825922	-0.25458628
1	0xbe82c7de	-0.25543112
2	0x3e71a969	0.23599781
3	0xbe81d937	-0.25361034
4	0xbe81e5a5	-0.25370517
5	0x3e72c2ea	0.23707166
6	0x3e703f11	0.23461558
7	0xbe8187fe	-0.25299066
8	0x3e6f3075	0.23358329
9	0xbe829d01	-0.2551041
10	0xbe8148dd	-0.25250903
11	0x3e6f97f5	0.23397811
12	0x3e703166	0.23456344
13	0x3e710a8e	0.23539183
14	0xbe828d46	-0.25498408
15	0xbe829a90	-0.25508547
16	0x3e6f3b4d	0.23362465
17	0xbe8311b5	-0.25599447
18	0x3e6f9c24	0.23399407
19	0xbe810594	-0.25199568
20	0x3e725a13	0.23667173
21	0x3e723f68	0.23657
22	0xbe80c5ce	-0.25150913
23	0xbe81fb93	-0.25387248
24	0xbe82dcd8	-0.25559115
25	0x3e71fb8f	0.23631118
26	0xbe806780	-0.25078964
27	0x3e6fa99f	0.23404549
28	0x3e6f11f1	0.23346688
29	0x3e70c6af	0.23513292
30	0x3e70da0a	0.23520675
31	0xbe81f412	-0.25381523
32	0x3e73095a	0.23734036
33	0x3e714af2	0.23563746
34	0x3e6c1601	0.23055269
35	0x3e7074de	0.23482081
36	0x3e70ca40	0.23514652
37	0xbe81bbc0	-0.25338554
38	0x3e712002	0.23547366
39	0x3e6fa492	0.23402622
40	0x3e6f8204	0.23389441
41	0x3e72a89e	0.23697135
42	0xbe80b6e9	-0.2513955
43	0xbe81f539	-0.25382403
44	0x3e70d389	0.23518194
45	0xbe82ed34	-0.25571597
46	0xbe80853b	-0.25101647
47	0x3e71ed17	0.23625599
48	0xbe80c189	-0.25147656
49	0x3e6f9abf	0.23398875
50	0xbe82376e	-0.25432914
51	0xbe816b48	-0.25277162
52	0xbe808bba	-0.25106603
53	0xbe8259bb	-0.25459084
54	0xbe810819	-0.2520149
55	0x3e72006f	0.23632978
56	0x3e709caa	0.23497263
57	0xbe8293db	-0.2550343
58	0x3e6ec53e	0.2331743
59	0xbe810579	-0.25199488
60	0xbe80466d	-0.2505373
61	0xbe812124	-0.25220597
62	0xbe823f82	-0.25439078
63	0xbe82a3b1	-0.25515512
64	0xbe80c95e	-0.2515363
65	0xbe839eb8	-0.2570703
66	0x3e701776	0.2344645
67	0xbe81ff44	-0.25390065
68	0xbe82402b	-0.2543958
69	0x3e71e9bb	0.23624317
70	0x3e71ba82	0.23606303
71	0xbe821569	-0.2540696
72	0x3e714be0	0.235641
73	0xbe8163dc	-0.252715
74	0xbe823461	-0.25430587
75	0x3e70a8f5	0.23501952
76	0x3e6fd106	0.2341958
77	0x3e6f8e43	0.23394112
78	0xbe825723	-0.25457105
79	0xbe829304	-0.2550279
80	0x3e729ce4	0.23692662
81	0xbe8199e6	-0.25312728
82	0x3e73ee0d	0.23821278
83	0xbe831537	-0.25602123
84	0x3e73208d	0.23742886
85	0x3e72476b	0.23660056
86	0xbe815210	-0.2525792
87	0xbe831565	-0.2560226
88	0xbe82c054	-0.2553736
89	0x3e735509	0.23762907
90	0xbe81b5b3	-0.25333938
91	0x3e72a36d	0.23695154
92	0x3e727034	0.23675615
93	0x3e729633	0.23690109
94	0x3e6fe512	0.23427227
95	0xbe80d611	-0.2516332
96	0x3e718aea	0.23588148
97	0x3e728a89	0.2368566
98	0x3e6e108b	0.23248498
99	0x3e737f93	0.23779134
100	0x3e73da5c	0.23813766
101	0xbe83a35b	-0.25710568
102	0x3e708108	0.23486722
103	0x3e7245a6	0.23659381
104	0x3e71a87b	0.23599426
105	0x3e726501	0.23671342
106	0xbe836ae8	-0.256675
107	0xbe81206d	-0.2522005
108	0x3e6fab7b	0.23405258
109	0xbe8235f6	-0.25431794
110	0xbe81d45b	-0.25357327
111	0x3e6ff3a1	0.23432781
112	0xbe823f88	-0.25439095
113	0x3e728dcc	0.23686904
114	0xbe81e5f5	-0.25370756
115	0xbe836d82	-0.25669485
116	0xbe829d76	-0.25510758
117	0xbe827979	-0.254833
118	0xbe830077	-0.25586292
119	0x3e6ebe9b	0.23314898
120	0x3e7326e2	0.23745301
121	0xbe81e136	-0.25367135
122	0x3e73a331	0.23792721
123	0xbe814864	-0.25250542
124	0xbe835612	-0.25651604
125	0xbe823b69	-0.2543595
126	0xbe832395	-0.25613084
127	0xbe826217	-0.25465462
128	0x3e820688	0.25395608
129	0x3e848ed4	0.2589022
130	0xbe897ce5	-0.268531
131	0x3e83d318	0.2574699
132	0x3e844a75	0.25838056
133	0xbe8996a0	-0.2687273
134	0xbe88fac2	-0.26753813
135	0x3e836885	0.2566568
136	0xbe869081	-0.26282123
137	0x3e84396c	0.2582506
138	0x3e83b78c	0.25725973
139	0xbe89056c	-0.2676195
140	0xbe88c113	-0.26709804
141	0xbe875d1e	-0.2643823
142	0x3e84c035	0.25927892
143	0x3e846b41	0.25863078
144	0xbe879391	-0.26479772
145	0x3e841aad	0.25801602
146	0xbe88edb6	-0.2674386
147	0x3e83554f	0.25651023
148	0xbe87dc99	-0.2653549
149	0xbe895325	-0.26821247
150	0x3e82ce09	0.25547817
151	0x3e8399af	0.2570319
152	0x3e83c010	0.2573247
153	0xbe87cbc2	-0.26522642
154	0x3e843857	0.25824234
155	0xbe883977	-0.26606342
156	0xbe8933ec	-0.26797426
157	0xbe87dd9c	-0.26536262
158	0xbe8812c4	-0.26576817
159	0x3e834cad	0.25644436
160	0xbe89e04f	-0.26928946
161	0xbe879ad9	-0.26485327
162	0xbe85a544	-0.2610265
163	0xbe893b68	-0.26803136
164	0xbe894d6a	-0.26816875
165	0x3e84d27b	0.25941834
166	0xbe89586b	-0.2682527
167	0xbe887e58	-0.26658893
168	0xbe887857	-0.26654312
169	0xbe87d947	-0.26532957
170	0x3e82edf0	0.25572157
171	0x3e82bb39	0.25533465
172	0xbe88f79b	-0.26751408
173	0x3e82e772	0.25567204
174	0x3e832199	0.2561157
175	0xbe88b157	-0.266978
176	0x3e840db9	0.2579172
177	0xbe886de0	-0.26646328
178	0x3e8481c6	0.2588026
179	0x3e8352a3	0.25648984
180	0x3e846156	0.2585551
181	0x3e846c40	0.25863838
182	0x3e843d31	0.25827935
183	0xbe8710df	-0.2638006
184	0xbe887b8f	-0.26656768
185	0x3e845481	0.2584572
186	0xbe87dc1b	-0.26535115
187	0x3e8377f3	0.25677451
188	0x3e844510	0.2583394
189	0x3e840a16	0.25788945
190	0x3e84bd0f	0.2592549
191	0x3e83bb16	0.25728673
192	0x3e83d788	0.25750375
193	0x3e84ef55	0.25963846
194	0xbe8983e0	-0.26858425
195	0x3e83a5c5	0.2571241
196	0x3e8640cb	0.26221308
197	0xbe88a21c	-0.2668618
198	0xbe8a1401	-0.26968387
199	0x3e85f0e0	0.26160336
200	0xbe8829e7	-0.2659447
201	0x3e863e0d	0.26219216
202	0x3e861749	0.2618964
203	0xbe878f43	-0.26476488
204	0xbe89737a	-0.26845914
205	0xbe89fd0e	-0.26950878
206	0x3e8681da	0.26270944
207	0x3e864b4d	0.26229325
208	0xbe886a18	-0.26643443
209	0x3e867eda	0.26268655
210	0xbe8a5c24	-0.27023423
211	0x3e85fa2a	0.26167423
212	0xbe888470	-0.26663542
213	0xbe89720f	-0.26844832
214	0x3e857ca8	0.26071668
215	0x3e851b70	0.25997496
216	0x3e851e98	0.25999904
217	0xbe89cc34	-0.26913607
218	0x3e84a9af	0.25910708
219	0xbe88e825	-0.26739612
220	0xbe89d093	-0.26916942
221	0xbe874d9f	-0.26426408
222	0xbe880df8	-0.26573157
223	0x3e856c56	0.26059216
224	0xbe8a6c7b	-0.2703589
225	0xbe89e660	-0.26933575
226	0xbe87af17	-0.2650077
227	0xbe89340c	-0.2679752
228	0xbe8a34c8	-0.26993394
229	0x3e863e32	0.26219326
230	0xbe8a76e6	-0.27043837
231	0xbe89a3c3	-0.26882753
232	0xbe89580d	-0.2682499
233	0xbe88466f	-0.26616237
234	0x3e84eb35	0.259607
235	0x3e85b9d0	0.26118326
236	0xbe881ee8	-0.2658608
237	0x3e8499a2	0.25898463
238	0x3e85c5ef	0.26127574
239	0xbe87d582	-0.2653008
240	0x3e8455a9	0.25846604
241	0xbe88ffc9	-0.2675765
242	0x3e83e044	0.2575704
243	0x3e854270	0.2602725
244	0x3e845953	0.258494
245	0x3e848eeb	0.25890288
246	0x3e85fda2	0.2617007
247	0xbe893cda	-0.2680424
248	0xbe8a14fd	-0.26969138
249	0x3e853347	0.26015684
250	0xbe8913b5	-0.26772848
251	0x3e859434	0.26089633
252	0x3e857e32	0.26072842
253	0x3e85ac67	0.26108095
254	0x3e8510c1	0.25989345
255	0x3e8591ab	0.26087698

value_head.2.bias f4 [32]
0	0xbf52b41d	-0.8230608
1	0xbf5ea4df	-0.86970323
2	0x3f5f5b4e	0.87248695
3	0x3f6213f2	0.88311684
4	0xbf61042d	-0.87896997
5	0xbf59853c	-0.84968925
6	0x3f613938	0.87977934
7	0xbf60cec8	-0.87815523
8	0x3f617a83	0.88077563
9	0xbf59813c	-0.8496282
10	0x3f5fe3e5	0.87457114
11	0xbf5ecece	-0.8703431
12	0xbf5f7ba5	-0.8729804
13	0xbf5f689a	-0.87268984
14	0x3f62077b	0.88292664
15	0x3f6141d7	0.8799109
16	0x3f60171f	0.8753528
17	0x3f5f3e28	0.8720422
18	0x3f5febff	0.87469476
19	0x3f5f6511	0.8726359
20	0x3f610c0b	0.87909
21	0x3f5f343d	0.87189084
22	0xbf6059ad	-0.87636834
23	0xbf5dcfcf	-0.86645216
24	0x3f609eb5	0.8774217
25	0xbf566dce	-0.837613
26	0x3f610bd6	0.87908685
27	0x3f61571e	0.88023555
28	0x3f5fcd87	0.87422985
29	0xbf5efd30	-0.87105083
30	0x3f5fa413	0.8735973
31	0xbf5fd778	-0.87438154

value_head.4.weight f4 [1, 32]
0	0x3e92165d	0.28532687
1	0x3e91c107	0.2846758
2	0xbe90e048	-0.28296113
3	0xbe8edf7a	-0.27904874
4	0x3e919692	0.2843519
5	0x3e91c548	0.28470826
6	0xbe8fa71e	-0.28057188
7	0x3e916ac3	0.28401765
8	0xbe8f6c1d	-0.2801217
9	0x3e931aa6	0.2873127
10	0xbe906efe	-0.2820968
11	0x3e919bac	0.2843908
12	0x3e92052b	0.28519568
13	0x3e91e418	0.28494334
14	0xbe8f5be0	-0.27999783
15	0xbe8fe9e6	-0.28108138
16	0xbe90bc1b	-0.28268513
17	0xbe90f846	-0.28314418
18	0xbe90849f	-0.28226182
19	0xbe90f031	-0.28308252
20	0xbe8ffe5e	-0.28123754
21	0xbe90feec	-0.2831949
22	0x3e91c57f	0.2847099
23	0x3e926f83	0.28600702
24	0xbe9020a7	-0.28149912
25	0x3e92195e	0.2853498
26	0xbe8fb97f	-0.2807121
27	0xbe8fb530	-0.28067923
28	0xbe90a531	-0.2825103
29	0x3e9227b9	0.2854593
30	0xbe90a565	-0.28251186
31	0x3e91f98a	0.28510696
