phasic_policy_best.pt (torch, 145858 bytes, 30 tensors)

shared.0.weight f4 [64, 5]
000000 c8 68 19 bd 3c cb cb 3d ba 9a df bb 37 94 f7 3b
       -0.037453443 0.09950873 -0.0068238648 0.0075555104
000010 8a 65 0e bb b6 81 0f bd 69 ae df 3d 6b 9b 06 bc
       -0.0021728002 -0.03503581 0.10921938 -0.0082157655
000020 e8 28 ec 39 d5 a6 d5 3a 1f 42 64 bd 1c 95 dc 3d
       0.00045043905 0.001630033 -0.05572712 0.10770628
000030 17 8a 73 bc 83 0e 8d 3b 04 2f f1 bb 2e f1 fc bc
       -0.014864466 0.0043047084 -0.007360341 -0.030876722
000040 c6 66 db 3d 0a 9b 1e bc d7 dc 26 3c bc 5f 25 3c
       0.10712962 -0.009680519 0.010184488 0.010093626
000050 e9 bc 22 bd f3 d7 e8 3d d2 67 39 bc 3b 16 15 3c
       -0.03973094 0.11369314 -0.011316257 0.009099538
000060 bd 1f 1b bc a0 6e c0 b9 50 3a 4b 39 9d 8d 5d ba
       -0.009468016 -0.00036703516 0.00019381312 -0.0008451583
000070 aa 4e 83 b9 4b 06 72 b9 03 e2 07 bd ae b3 d8 3d
       -0.00025044876 -0.00023081263 -0.033174526 0.10581146
000080 73 83 4a bb 39 a9 28 3c 2f 21 9e 3b e5 9b 20 bd
       -0.0030901104 0.010294252 0.004825733 -0.039211173
000090 a9 c1 eb 3d 4b a6 5b bc b9 15 77 b9 9f 01 62 ba
       0.11511547 -0.013406347 -0.00023563848 -0.00086214574
0000a0 f9 1e 2b bd 2f af c3 3d cf 78 ea bb 04 34 3c 3c
       -0.041777585 0.09554898 -0.007155515 0.011487011
0000b0 83 e6 91 3b 0a 12 e4 bc 9b 1e f5 3d 9e 4a 68 bc
       0.004452528 -0.027840633 0.11968728 -0.014177946
0000c0 3a 6d 16 3b 12 a9 03 bb 42 92 fa bc 78 18 e5 3d
       0.0022953288 -0.0020089787 -0.03058732 0.11186308
0000d0 95 c5 08 bc 07 db 5c ba 8d 35 fc 3b 8c d6 2e bd
       -0.0083478885 -0.00084249716 0.0076968134 -0.042685077
0000e0 e0 5f f8 3d 05 7c 59 bc 9a fb 8d 3b 70 23 d0 bb
       0.12127662 -0.0132741975 0.0043329718 -0.0063518807
0000f0 c2 28 f7 bc 05 6b cf 3d 10 59 fd bb 1d ba 4f 3c
       -0.030170802 0.10127834 -0.0077315643 0.01267865
000100 83 ec 98 3b af d8 70 bd 4f 9b 03 3e c1 77 94 bc
       0.0046668663 -0.058800396 0.12852214 -0.01812351
000110 8c 0e 78 bb bf 1d 41 bc c8 8c 08 bd e9 91 df 3d
       -0.0037850467 -0.011786877 -0.033337384 0.10916502
000120 00 e2 94 bb 08 4e 27 3c 01 84 b1 3b 08 11 10 bd
       -0.004543543 0.010211475 0.0054173474 -0.035172492
000130 6b a8 09 3e 1b 1a 92 bc 89 08 22 3c 43 4f a4 3b
       0.13443153 -0.017834714 0.00988973 0.0050143315
000140 97 84 2e bd ab f0 e2 3d 5f 9a 2b bc 58 73 0a bb
       -0.042606916 0.1108106 -0.010473817 -0.002112588
000150 f2 34 1f 3b 78 0e 13 bd 33 90 df 3d d1 b0 09 bc
       0.0024293032 -0.03590247 0.10916176 -0.008403973
000160 a9 c8 06 3c 80 24 dc 3a 69 98 10 bd f6 1f cd 3d
       0.008226552 0.0016795546 -0.0353016 0.10015862
000170 26 6f a6 bb c3 22 88 3b 74 70 11 3b eb 02 c8 bb
       -0.005079168 0.0041545345 0.0022192271 -0.0061038635
000180 50 ee 09 3e 33 e8 96 bc 3b 3c e9 bb 5f 90 8e 3c
       0.13469815 -0.018421268 -0.0071177757 0.017402826
000190 39 4a e2 bc 7b 67 e1 3d 09 6a 51 bc cf cb 2e 3a
       -0.027623283 0.110060655 -0.012781628 0.0006667943
0001a0 0f a2 93 3b 8b c1 47 bd 0d 2d ec 3d ae b4 58 bc
       0.004505403 -0.04876856 0.1153203 -0.013226671
0001b0 b2 d6 5b 3c 5a f2 ba bb 3b 1c 06 bd 46 20 f2 3d
       0.013417887 -0.00570516 -0.032741766 0.11822562
0001c0 c2 1b 45 bc 4f 16 98 b9 4b 03 a3 bb 21 1b 19 bd
       -0.012030544 -0.0002900832 -0.004974758 -0.037379388
0001d0 85 c1 e7 3d 03 48 5e bc b7 97 95 3a 51 d2 3d bb
       0.11316208 -0.013566974 0.0011413012 -0.002896447
0001e0 b4 a8 0a bd a6 b0 d8 3d f8 79 f2 bb f0 5e 09 3c
       -0.033852294 0.10580568 -0.0073997937 0.008384451
0001f0 f2 f7 eb 3b ae b4 07 bd 13 12 db 3d 90 63 b4 bb
       0.0072011882 -0.033131294 0.10696807 -0.005505033
000200 0c 70 14 3c a8 82 93 3a f7 54 11 bd 13 c0 e1 3d
       0.009059917 0.0011254149 -0.03548142 0.110229634
000210 88 4e 15 bc a7 30 bf 3b 2c 6b 1a bb 94 bb 1a bd
       -0.009112962 0.0058346572 -0.0023562415 -0.037776545
000220 86 4e d6 3d 47 ac cf bb 8c e5 5c 3b e4 32 ee 3b
       0.10464196 -0.0063376757 0.0033706157 0.00726925
000230 26 9b ad bb 96 ec 18 3e 8b 5d a0 bc a0 89 1a 3c
       -0.005298036 0.14934 -0.019575855 0.009432226
000240 a7 65 c1 3b b0 27 14 bd ab 71 e2 3d 10 a3 e3 bb
       0.0059020105 -0.03617066 0.11056837 -0.006946929
000250 99 d4 86 3b da f3 83 bc 2d e4 9c bc 19 b7 14 3e
       0.004114699 -0.016107488 -0.019151771 0.14522971
000260 b7 38 94 bc 05 47 05 3c 0c 7e 07 ba 99 5b 2a bd
       -0.01809345 0.008134608 -0.0005168624 -0.04159126
000270 1b 6e e8 3d 88 2a 14 bc 73 65 a7 3b 38 83 2d bb
       0.11349126 -0.009043343 0.0051085292 -0.0026475918
000280 d7 59 0f bd 53 87 de 3d 7c 40 1b bc 35 3b 47 3c
       -0.034997787 0.10865655 -0.0094758235 0.012160112
000290 f8 c4 8d 3b 05 04 b9 bc 95 e3 08 3e 02 4b 8c bc
       0.004326459 -0.022584924 0.13368066 -0.01712561
0002a0 38 65 d5 bb 59 0b 67 3a bd 6d 9c bc 60 21 ec 3d
       -0.0065123104 0.00088136416 -0.019095296 0.11529803
0002b0 3c 1d eb bb 37 ae 95 ba f7 b9 3c 3b b6 4a 7c bd
       -0.007175116 -0.0011419718 0.0028797367 -0.061594687
0002c0 40 ca fb 3d 1b ce 8c bc 4c 30 aa 3b c6 e1 a1 bc
       0.122944355 -0.017188122 0.0051937457 -0.019760977
0002d0 9c 92 04 bd 66 67 ce 3d b8 3e d5 bb b3 9b 0f ba
       -0.03236638 0.100783154 -0.006507721 -0.0005478218
0002e0 e7 e6 89 ba 62 62 f2 bc 5d ec e3 3d 8e 6f f2 bb
       -0.0010521085 -0.029587928 0.11129067 -0.0073985523
0002f0 7b 85 d0 3b 0a 82 80 3b 0a 73 13 bd 05 30 d9 3d
       0.0063635684 0.003921752 -0.03599838 0.10604862
000300 d9 49 1f bc 1d a1 71 bb 33 90 97 bb f2 ee 1c bd
       -0.0097221965 -0.0036869713 -0.004625344 -0.038313814
000310 f4 fa 0a 3e 31 1e 82 bc 71 43 ae 3b c0 4d 06 3b
       0.13572294 -0.015883537 0.0053180982 0.002049312
000320 fa f0 e6 b6 5e 66 a9 b9 e0 ec 33 bb 02 b3 24 39
       -6.8825875e-06 -0.0003231046 -0.002745442 0.00015706944
000330 15 0f f2 ba ec 91 21 bd c5 d7 dd 3d dd fc 0a bc
       -0.001846763 -0.039445803 0.108321704 -0.008483139
000340 87 84 5f 3c 98 fa 49 3b 4a 09 2a bd c0 ab e0 3d
       0.013642437 0.0030819532 -0.041512765 0.10970259
000350 93 07 45 bc 9e 3f 8e 3b c2 d9 5f bb 9c 93 0b bd
       -0.012025732 0.00434108 -0.0034156893 -0.03407632
000360 89 a2 d0 3d 7c ff 39 bb 3a ad 98 3b 66 55 31 3b
       0.10187251 -0.002838104 0.004659322 0.0027058958
000370 1d 21 03 bd 1e c0 d2 3d 81 c2 f1 bb 84 84 92 3b
       -0.032014 0.1029055 -0.007377923 0.0044713635
000380 82 9e 0f 3b 93 43 cf bc e6 a8 e4 3d 06 2d ee bb
       0.0021914546 -0.025300777 0.11165027 -0.007268551
000390 0a a8 3f 3b 9d 24 05 bc 4c 53 a7 3a cb 7d 52 3a
       0.0029244446 -0.008126405 0.0012765913 0.0008029609
0003a0 ab a6 d7 ba 3f 45 ab 38 47 45 1d 38 52 ae 15 bd
       -0.0016452869 8.1668135e-05 3.7496236e-05 -0.036543198
0003b0 ea 1b e2 3d 01 a6 36 bc b9 db 81 ba 21 1e 0b 3c
       0.110404804 -0.011147977 -0.0009907401 0.00849107
0003c0 b1 11 0b bd 11 ec e5 3d 16 80 19 bc 13 35 39 bb
       -0.03395242 0.11226667 -0.009368917 -0.0028260394
0003d0 16 43 d3 3a 4c 6a a8 bd e5 72 df 3d 86 b9 86 bc
       0.0016118016 -0.082233995 0.10910586 -0.016445886
0003e0 8b 1e 78 bb 63 9f 01 bd 2e e6 22 bd 93 5b d2 3d
       -0.0037860002 -0.031646144 -0.039770298 0.10271373
0003f0 cd 2a 07 bc 4d 93 b9 3b b3 6d 76 3b a7 4c f2 bc
       -0.008249951 0.0056633116 0.0037602007 -0.029577566

shared.0.bias f4 [64]
000000 84 06 9b 3d ac 35 98 3d f1 3a 8c 3d 5d a6 95 3d
       0.07569602 0.07432112 0.0684718 0.07307122
000010 e5 1d 91 3d 9f 75 69 ba 69 b3 9f 3d 54 8c 8e 3d
       0.0708578 -0.00089057715 0.07797892 0.06960359
000020 e3 3e 98 3d e8 42 93 3d 7f e2 9b 3d 8e a8 93 3d
       0.0743387 0.07190496 0.0761156 0.07209884
000030 92 0e 9a 3d 36 e3 8c 3d 3c e5 9a 3d 52 35 8a 3d
       0.0752231 0.068792745 0.07563254 0.06748451
000040 91 be 9a 3d 33 d8 97 3d a7 d5 9d 3d 09 4e 8b 3d
       0.07555879 0.074142836 0.077067666 0.068019934
000050 21 c2 98 3d a6 3b 8e 3d e9 3f 94 3d 66 41 93 3d
       0.07458902 0.06944971 0.072387524 0.07190208
000060 76 3e 98 3d f7 b6 9c 3d 7a 09 9b 3d 74 89 98 3d
       0.074337885 0.07652085 0.07570167 0.07448092
000070 75 3e 87 3d 72 19 99 3d 87 27 85 3d 69 35 97 3d
       0.066037096 0.074755564 0.0650168 0.07383234
000080 c3 d5 95 3d 70 f9 8a 3d 9d 91 95 3d 56 72 86 3d
       0.073161624 0.06785858 0.07303164 0.065647766
000090 eb 15 9a 3d 3c a4 9d 3d 94 46 93 3d 79 1f 8d 3d
       0.07523712 0.07697341 0.07191196 0.068907686
0000a0 78 ef 54 ba 9b f5 97 3d 94 43 95 3d f9 30 9e 3d
       -0.0008122842 0.074198924 0.0728828 0.077241845
0000b0 0c ec 92 3d 99 c6 98 3d 5c 71 8a ba 46 94 98 3d
       0.071739286 0.074597545 -0.0010562348 0.07450156
0000c0 82 06 94 3d da d3 8d 3d a4 49 96 3d db f1 97 3d
       0.07227804 0.06925173 0.073382646 0.07419177
0000d0 a6 19 93 3d bf d3 98 3d 39 b9 90 3d d1 7b 98 3d
       0.071826264 0.07462262 0.070665784 0.07445491
0000e0 6c 8f 9a 3d db 26 96 3d 13 91 99 3d 8c 32 9b 3d
       0.07546887 0.0733163 0.07498374 0.075780004
0000f0 a3 8c 9b 3d 75 7a 98 3d e5 1a 98 3d 62 4b 8a 3d
       0.07595184 0.07445232 0.07427005 0.067526594

shared.3.weight f4 [64, 64]
000000 51 1d 28 3d 9b 04 23 3d 5a 76 56 3d 7c d7 2a 3d
       0.041043583 0.039799314 0.052358963 0.04170941
000010 85 7a 31 3d aa f7 d4 3a 36 d2 05 3d c2 60 43 3d
       0.043329734 0.0016248126 0.032671176 0.047699697
000020 a5 6f 0c 3d ed b8 38 3d da 57 2b 3d b1 2e 3c 3d
       0.03428616 0.045098234 0.04183183 0.045942966
000030 ea 3b 31 3d d0 de 6e 3d 39 5e 1b 3d 5e c2 73 3d
       0.04327003 0.05831796 0.037931655 0.059511535
000040 eb cf 36 3d d3 09 25 3d 4d 84 1d 3d 34 9b 67 3d
       0.04463188 0.040292572 0.03845625 0.056544498
000050 57 f8 3a 3d 7a 6a 3c 3d af 33 2f 3d 4f d6 26 3d
       0.04564699 0.04599998 0.0427739 0.040731724
000060 99 70 23 3d 3d 66 02 3d 81 77 31 3d fb 49 1d 3d
       0.039902303 0.031835783 0.04332686 0.03840063
000070 c0 1a 67 3d 4f 3c 0c 3d 34 7a 64 3d ff 17 3b 3d
       0.056421995 0.034237202 0.055780604 0.04567718
000080 65 1e 42 3d 28 cc 4c 3d 52 9f 14 3d da b2 70 3d
       0.047392268 0.049999386 0.036284752 0.058764316
000090 74 01 2c 3d ce 87 1f 3d 20 0f 1d 3d 63 b9 5f 3d
       0.041993573 0.038947873 0.038344502 0.054620158
0000a0 28 4d 98 39 33 22 26 3d 8d 37 2b 3d c6 c1 08 3d
       0.00029049185 0.04055996 0.041801024 0.03338792
0000b0 59 88 1f 3d ff 00 13 3d 20 e9 c2 3a 76 95 37 3d
       0.03894839 0.03588962 0.0014870502 0.04482027
0000c0 e9 4d 26 3d 4c 6d 7a 3d 65 e9 14 3d f3 ed 12 3d
       0.040601645 0.06113939 0.036355395 0.035871457
0000d0 01 44 22 3d 82 bc 21 3d 21 65 45 3d 5c b0 2d 3d
       0.039615635 0.039486416 0.048192147 0.042404518
0000e0 ae 01 28 3d bb 99 18 3d a6 af 18 3d 14 97 23 3d
       0.041017227 0.037255984 0.037276886 0.039939
0000f0 39 93 1c 3d 04 fb 2a 3d 2a b6 21 3d 00 5f 88 3d
       0.03822634 0.041743293 0.039480366 0.06658745
000100 b7 5c 33 3d 21 f4 17 3d 7c d7 53 3d 78 4e 23 3d
       0.04378959 0.037098054 0.051719174 0.039869756
000110 6c 3d 28 3d ae 95 22 ba be f4 0d 3d 10 f7 4f 3d
       0.0410742 -0.00062021136 0.034657232 0.050772727
000120 4e f2 22 3d 00 3d 3b 3d db 94 2a 3d 26 e7 32 3d
       0.03978186 0.04571247 0.041645866 0.04367747
000130 88 21 1b 3d 04 91 64 3d c1 5b 17 3d 74 d8 80 3d
       0.037873775 0.05580236 0.036952738 0.06291285
000140 98 13 4a 3d 2c e7 2b 3d 40 d4 29 3d 70 e8 6c 3d
       0.049335092 0.04196851 0.041462183 0.057838857
000150 64 59 32 3d b8 ea 3d 3d c5 11 35 3d eb 50 3a 3d
       0.04354228 0.046366423 0.0442064 0.045487326
000160 66 af 18 3d 04 87 01 3d 74 f8 2d 3d a6 60 0a 3d
       0.037276648 0.0316229 0.04247327 0.033783577
000170 06 dc 7b 3d 46 fe 24 3d 7f d4 6c 3d da 80 3b 3d
       0.061489128 0.040281557 0.05781984 0.04577718
000180 4d f3 2f 3d 69 15 5e 3d 35 48 0d 3d 53 7f 70 3d
       0.04295664 0.054219637 0.03449269 0.058715176
000190 0e ec 15 3d 7f 63 28 3d 76 8e 29 3d 0a 8b 57 3d
       0.036602072 0.041110512 0.041395627 0.052622832
0001a0 d9 a9 f0 3a 7c 06 0f 3d 6d f2 34 3d 3d f8 07 3d
       0.0018361165 0.034918293 0.044176508 0.033195723
0001b0 d2 67 27 3d 20 e2 09 3d 3e ff a9 3a ce f3 2e 3d
       0.040870495 0.033662915 0.0012969745 0.04271298
0001c0 f5 c4 10 3d c3 f8 7d 3d 95 bb 16 3d 7c 1c 28 3d
       0.035344083 0.062004816 0.036799986 0.04104279
0001d0 c9 ea 18 3d 42 4f 2f 3d 18 ba 3d 3d 04 34 17 3d
       0.037333284 0.042800196 0.04632005 0.03691484
0001e0 01 af 31 3d 14 e9 10 3d 8c 3d 26 3d 8d 87 25 3d
       0.043379787 0.03537853 0.04058604 0.040412474
0001f0 71 65 1a 3d 0f 55 13 3d 30 d0 19 3d 75 04 82 3d
       0.0376944 0.03596979 0.03755206 0.06348506
000200 b0 d7 76 b9 35 41 da ba 32 04 0c bb 3e 14 c3 3a
       -0.00023540738 -0.0016651513 -0.0021364805 0.0014883352
000210 b8 0d 32 3a f5 a5 c1 3a d2 bc d3 ba 5c 02 15 bb
       0.00067922054 0.001477419 -0.0016154295 -0.0022737002
000220 7e 9a 41 ba 1d db 2c 3a 4f 1e a4 39 2a 86 1b bb
       -0.0007385387 0.000659393 0.000313031 -0.002373109
000230 4d 55 f8 ba da fd 81 b9 a4 f1 d2 39 c1 32 e6 b8
       -0.001894632 -0.00024793932 0.00040234358 -0.00010976708
000240 93 7d ae 3a c1 f1 06 bb 4e 94 13 bb a0 4a 10 bb
       0.001331257 -0.0020590874 -0.0022518816 -0.0022017136
000250 f5 79 c6 39 20 e7 aa b9 7e 62 86 3a 9a b0 a2 39
       0.00037856368 -0.00032597128 0.0010252742 0.00031030626
000260 32 b5 08 3a 56 9e a7 ba e1 c8 b7 3a f5 2e 9e ba
       0.00052149885 -0.0012788277 0.0014021659 -0.0012068438
000270 1c 81 c5 b9 42 cc 08 bb 06 9a de ba ca ef 5b 3a
       -0.00037670962 -0.00208737 -0.0016983158 0.00083899184
000280 b9 a8 bc 38 16 fd f1 ba 44 17 b7 ba 41 a0 a3 3a
       8.9959656e-05 -0.0018462266 -0.0013968726 0.0012483672
000290 22 94 34 b8 2e 2e ab 3a 5b 5d 9a ba d9 2f 53 3a
       -4.3053304e-05 0.0013060027 -0.001177709 0.0008056141
0002a0 4e 02 12 3a 9c c6 df ba 10 01 5f 3a 28 c7 56 3a
       0.00055698014 -0.001707274 0.0008506933 0.0008193129
0002b0 d5 8a a7 ba b9 18 db 39 92 1d d5 ba 39 16 e8 3a
       -0.0012782464 0.00041789355 -0.0016259423 0.0017706818
0002c0 64 3c e4 ba a7 74 9a ba d3 cc be ba cd 0e 29 3a
       -0.0017413017 -0.0011784033 -0.0014556892 0.0006449044
0002d0 ef 95 2a 3a dc a4 95 39 36 9f ce 39 50 1f fc 39
       0.0006507327 0.00028542324 0.00039410003 0.00048088515
0002e0 09 29 7e ba bf 96 18 b9 47 b7 9d 3a 95 a9 77 ba
       -0.0009695446 -0.00014552007 0.001203277 -0.0009447572
0002f0 e1 05 33 ba b1 c2 c2 ba c2 b2 c6 ba 01 ef dc 3a
       -0.0006829184 -0.0014859048 -0.0015159475 0.0016855897
000300 94 dc 14 3d af fd 15 3d 9f 10 55 3d ff 24 13 3d
       0.036343172 0.036618885 0.052017804 0.035923954
000310 af 5f 2a 3d ed 79 0e 3a 51 73 16 3d e6 1c 51 3d
       0.041595157 0.00054350385 0.036731068 0.05105295
000320 b4 23 22 3d c8 8f 31 3d 7c 09 3f 3d 8c 1d 4e 3d
       0.03958483 0.04335001 0.046639904 0.050321147
000330 0c ed 34 3d 08 32 75 3d 37 1f 11 3d 20 6f 7c 3d
       0.044171378 0.059862167 0.03543016 0.061629415
000340 a1 1a 47 3d 45 5d 2a 3d 3e c8 35 3d 1b 37 6d 3d
       0.04860938 0.041592855 0.04438042 0.05791388
000350 62 73 3f 3d d9 51 43 3d ae d0 42 3d 89 9b 42 3d
       0.046740897 0.047685478 0.047562294 0.04751161
000360 c3 b7 27 3d 99 38 19 3d fa f4 35 3d 7b 76 13 3d
       0.040946733 0.03740749 0.04442308 0.036001664
000370 ae 5e 79 3d 24 1c 30 3d 97 df 6f 3d 17 6e 25 3d
       0.06088131 0.042995587 0.05856284 0.040388193
000380 2f a7 37 3d 50 a6 52 3d cf d9 1c 3d 6b 0f 6f 3d
       0.044837173 0.05142814 0.038293656 0.058364313
000390 fa d0 2a 3d 56 03 30 3d 4f 89 28 3d 70 39 63 3d
       0.0417032 0.04297193 0.041146573 0.0554747
0003a0 60 ef 00 bb 9e fe 21 3d d0 98 35 3d ed f5 1b 3d
       -0.0019673929 0.039549462 0.044335186 0.03807633
0003b0 35 f6 40 3d 1f f8 1d 3d e0 73 65 3a 16 25 3e 3d
       0.0471098 0.038566705 0.00087529235 0.046422087
0003c0 c6 34 2f 3d 7e 8a 81 3d 10 a8 2a 3d bc 78 21 3d
       0.042774938 0.063252434 0.041664183 0.039421782
0003d0 9d 38 16 3d 81 d6 2b 3d 57 3b 4d 3d c8 d1 38 3d
       0.036675084 0.041952614 0.05010542 0.045121938
0003e0 ee 4c 31 3d d8 55 0f 3d 09 b4 1e 3d 31 f5 1f 3d
       0.043286256 0.034993976 0.038745914 0.039052192
0003f0 9e ad 2a 3d 2c cf 27 3d a6 fa 32 3d 2f 6b 80 3d
       0.04166948 0.04096906 0.04369607 0.06270444

shared.3.bias f4 [64]
000000 38 3d aa 3e c4 f7 ab 3e 2e 4f 1c ba 44 1a ab 3e
       0.3324983 0.33587468 -0.00059627264 0.33418477
000010 72 93 1b ba 55 74 23 ba 5e 00 a9 3e e7 6c a8 3e
       -0.0005934752 -0.00062352914 0.33008093 0.32895586
000020 c5 77 a9 3e 18 c1 aa 3e 14 39 a9 3e b8 a2 1b ba
       0.3309919 0.33350444 0.3305136 -0.0005937028
000030 e3 a4 1b ba 53 1b aa 3e 63 1f ab 3e 3a f4 aa 3e
       -0.0005937351 0.33223972 0.33422384 0.33389455
000040 33 9c ab 3e 63 85 1b ba 62 da 0d ba 67 af ab 3e
       0.33517608 -0.0005932657 -0.0005411265 0.3353226
000050 d8 a3 1b ba 11 9f a9 3e f2 a4 1b ba 2b 3e a8 3e
       -0.00059371954 0.3312917 -0.00059373595 0.3285993
000060 03 60 aa 3e c3 9e 1b ba 49 a4 1b ba fc 1e aa 3e
       0.33276376 -0.0005936438 -0.0005937261 0.33226764
000070 94 88 1b ba 74 2c aa 3e fb b3 aa 3e 0d 47 a9 3e
       -0.00059331325 0.3323704 0.3334044 0.3306202
000080 9f e4 a7 3e 28 8e 1b ba 85 61 ab 3e d9 f3 aa 3e
       0.32791612 -0.00059339637 0.3347284 0.33389166
000090 93 8f d8 3e ab 98 1b ba 7c 52 1d ba a7 a3 1b ba
       0.42297038 -0.000593553 -0.0006001366 -0.0005937167
0000a0 cb a6 a8 3e 6a ae ab 3e bc 56 a9 3e 8f a3 1b ba
       0.32939753 0.33531505 0.33073986 -0.0005937153
0000b0 fe 91 ab 3e 26 e2 a9 3e cf a4 1b ba 5c ee 22 ba
       0.3350982 0.3318035 -0.0005937339 -0.0006215328
0000c0 07 4b 1c ba 4a a2 1b ba 63 d4 a9 3e 74 3c cd b9
       -0.00059621077 -0.0005936964 0.3316985 -0.00039145688
0000d0 78 67 1c ba 7c 8a 0f ba 77 33 1b ba 29 36 a9 3e
       -0.0005966346 -0.0005475653 -0.00059204496 0.33049133
0000e0 56 5b 1f ba ff 44 aa 3e f5 c3 a9 3e 9f 04 a8 3e
       -0.0006078979 0.33255765 0.33157316 0.32816026
0000f0 74 a4 1b ba 5c 38 a8 3e 88 a1 1b ba ca de a9 3e
       -0.0005937286 0.328555 -0.0005936851 0.33177787

policy_head.0.weight f4 [1, 64]
000000 46 c4 7e be 12 af 7e be a8 ba bb b9 0a 6d 7d be
       -0.2487956 -0.24871472 -0.0003580649 -0.24748626
000010 06 f6 53 3a 48 83 0f ba df da 7e be 8e 9c 7e be
       0.00080856716 -0.00054745795 -0.2488818 -0.24864408
000020 e4 2e 81 be 04 10 80 be b3 8d 7e be f9 75 dd 3a
       -0.25231087 -0.2501222 -0.24858741 0.001689612
000030 53 ff fa 3a 26 8a 80 be fb 06 7d be 77 e1 7e be
       0.0019149579 -0.251054 -0.24709694 -0.24890696
000040 05 ca 7d be 9f f3 e9 b8 62 0e 27 3b 9a 3e 7d be
       -0.24784096 -0.00011155684 0.002549075 -0.24730912
000050 85 d0 13 3b 61 42 80 be 31 68 12 3b fe 96 7e be
       0.0022554707 -0.25050643 0.0022339935 -0.24862286
000060 bf 3a 80 be d4 d0 9a 3a b2 4b 06 3b 3b e2 7e be
       -0.2504482 0.0011811503 0.0020491895 -0.24890988
000070 93 23 27 3b d5 09 7e be 5f fd 80 be fd 1a 80 be
       0.0025503382 -0.24808438 -0.25193307 -0.2502059
000080 10 e6 7c be c0 09 37 b7 d1 26 7d be 38 6a 7f be
       -0.24697137 -1.090992e-05 -0.24721839 -0.24942863
000090 17 2a 1b bf c4 08 00 37 e8 a7 0a 3b d6 51 b8 3a
       -0.606111 7.631435e-06 0.0021157209 0.0014062475
0000a0 19 51 7d be 1e 7e 7e be cb 59 7d be e6 06 86 3a
       -0.24737968 -0.24852797 -0.24741285 0.0010225445
0000b0 20 f3 7d be 3b f4 7e be b8 d5 e2 3a fd 1e 06 3b
       -0.24799776 -0.24897854 0.0017306125 0.0020465248
0000c0 a9 3e 26 3a 8a 50 79 3a 0d 89 80 be 77 b1 a4 3a
       0.00063417346 0.00095105974 -0.2510456 0.0012565096
0000d0 8d e9 0d ba e0 a6 a0 3a d0 13 16 3a 19 c2 7e be
       -0.0005413525 0.0012256764 0.0005724998 -0.2487873
0000e0 fd 1c b4 3a 20 0d 7f be d6 3b 7f be 16 8e 7d be
       0.0013741549 -0.2490735 -0.2492517 -0.24761233
0000f0 b2 6c f0 3a af 8f 7b be ed f6 7d b7 d2 76 7e be
       0.0018342941 -0.2456653 -1.5137467e-05 -0.24850014

value_head.0.weight f4 [64, 64]
000000 0b 4a d6 3d c1 2e d3 3d c2 51 89 ba 47 71 d3 3d
       0.10463341 0.10311652 -0.0010476636 0.1032434
000010 2d 17 d8 ba 35 33 fd 3a a7 c3 db 3d 45 91 d7 3d
       -0.0016486399 0.0019317629 0.10730677 0.10525755
000020 8e 49 d7 3d 52 4d db 3d 6b b4 d9 3d e5 1f cd 3a
       0.10512076 0.10708107 0.10630115 0.0015649764
000030 f0 2f e3 3a 93 df d7 3d 3e 9c d7 3d ea 6e e1 3d
       0.0017333012 0.1054069 0.10527848 0.11007483
000040 ab 3a dd 3d 4c fc 1d ba 4f dc 67 3a 8b a8 d3 3d
       0.10802206 -0.000602667 0.0008844779 0.103348814
000050 c4 af ae 3a a8 6c dc 3d 5e 82 8a 39 72 89 d9 3d
       0.0013327529 0.10762912 0.00026418542 0.10621919
000060 ad 55 de 3d 74 7a 2d 3a f4 e7 c4 38 c2 f6 da 3d
       0.10856185 0.0006617673 9.389213e-05 0.106915966
000070 c8 59 c1 38 a4 23 da 3d 13 0e df 3d 12 d2 da 3d
       9.21968e-05 0.10651329 0.10891356 0.10684599
000080 90 a1 d3 3d 9f dd f8 3a 20 2d da 3d c8 f7 db 3d
       0.1033355 0.0018986947 0.10653138 0.1074062
000090 e4 b0 bc 3d 4c f4 01 3b 91 e5 dd ba 97 e3 a1 b9
       0.09213427 0.001982945 -0.0016929378 -0.0003087788
0000a0 5f f1 d2 3d ef 61 d6 3d b7 b6 de 3d f0 47 ae b9
       0.10299944 0.10467898 0.10874694 -0.00033241464
0000b0 d0 1b d8 3d f6 8c db 3d 52 97 dc ba 64 f7 f4 3a
       0.1055218 0.107202455 -0.0016829765 0.0018689451
0000c0 5e 39 97 ba 1a 48 b3 3a ac 64 dc 3d 07 5a de 3a
       -0.0011537482 0.0013678104 0.10761389 0.0016964086
0000d0 0f 6b 08 3b 66 fa 29 ba 91 32 9a ba 5a 12 db 3d
       0.0020815765 -0.00064841507 -0.0011764338 0.1069686
0000e0 fd 35 48 3a 41 34 d5 3d 95 36 de 3d ce 8e d3 3d
       0.00076374394 0.10410357 0.108502544 0.10329972
0000f0 ce bb a1 ba ad bb d1 3d 74 f0 43 3a 02 25 d8 3d
       -0.0012339295 0.102408744 0.000747449 0.10553934
000100 ec 58 d2 3d 6a 3f d1 3d 06 e9 c1 3a 85 36 d6 3d
       0.10270867 0.102171734 0.0014794178 0.104596175
000110 28 aa 76 ba c9 61 89 39 9b 80 e0 3d 18 78 d4 3d
       -0.00094095105 0.00026203532 0.109620295 0.103744686
000120 71 fb d2 3d 26 93 dc 3d a9 03 e1 3d 80 5f de ba
       0.10301865 0.10770254 0.10987026 -0.0016965717
000130 b9 1b e7 ba 44 e9 de 3d 83 74 da 3d e3 43 dc 3d
       -0.0017632163 0.10884336 0.10666754 0.10755136
000140 20 ee dd 3d 57 0e 13 39 f8 8f cd b9 21 8c da 3d
       0.10836434 0.00014024354 -0.00039207912 0.10671259
000150 8a 2c be 3a 90 14 df 3d 3d 08 cf ba 95 03 d6 3d
       0.0014509123 0.10892594 -0.0015795302 0.10449902
000160 97 da d9 3d 3a 33 4a 3a 80 6a 02 3a 0b 72 d8 3d
       0.10637396 0.0007713322 0.0004974976 0.10568627
000170 58 c7 b0 ba ea 09 d5 3d 46 af de 3d 25 99 db 3d
       -0.0013487143 0.104022816 0.108732745 0.107225694
000180 98 6b db 3d 6f 25 b1 39 3b 70 db 3d fc c6 da 3d
       0.10713881 0.0003378796 0.10714766 0.106824845
000190 04 f3 bb 3d bd c6 83 b9 27 54 58 ba 32 df 21 ba
       0.09177211 -0.0002513434 -0.0008252286 -0.0006174921
0001a0 1e 15 d3 3d 63 b9 d9 3d d7 4d d9 3d 12 92 cf b9
       0.10306762 0.10631063 0.1061055 -0.00039590948
0001b0 b5 17 d4 3d 06 5b db 3d e2 8e 90 3a d1 28 cc 39
       0.10356084 0.10710721 0.001102891 0.00038940323
0001c0 77 0b d8 3a d6 16 57 3a f5 b1 d9 3d 9f 42 d7 39
       0.0016482909 0.0008205002 0.10629646 0.00041057632
0001d0 c2 90 3e 3a 2b 15 dd ba 4f 80 ff 3a d2 8e d7 3d
       0.00072694954 -0.001686727 0.0019493195 0.10525288
0001e0 ed fe 8d b9 5c 42 d3 3d 36 a4 db 3d 6f f2 d3 3d
       -0.0002708355 0.103153914 0.1072468 0.10348975
0001f0 1a a5 b2 3a e7 56 d6 3d 0e 2d 33 39 f0 57 d9 3d
       0.0013629526 0.10465794 0.00017087554 0.10612476
000200 ab be cf bd 2f 79 ca bd d1 b9 cf ba b4 a5 cd bd
       -0.10143789 -0.09886395 -0.0015848224 -0.10041371
000210 6d 89 c0 ba 2f 65 e4 ba e3 7e d6 bd 33 be ce bd
       -0.0014689394 -0.0017425175 -0.104734205 -0.10094871
000220 4f 1e cd bd d5 b4 cf bd 1b 52 d7 bd 86 ae 38 39
       -0.100155465 -0.10141913 -0.10513707 0.00017612622
000230 27 1b 98 3a d4 1b d3 bd e4 d5 cd bd 43 14 da bd
       0.0011604772 -0.10308042 -0.10050562 -0.10648396
000240 ed 69 d3 bd 8a 35 a6 3a a4 00 fb ba 0e 14 cf bd
       -0.10322938 0.0012680751 -0.0019149971 -0.10111247
000250 11 b8 74 3a 4d 03 d8 bd d0 45 89 ba 6b 14 d2 bd
       0.00093352894 -0.105475046 -0.0010473076 -0.10257801
000260 19 12 d3 bd 64 bc 9a 3a ab 71 3d ba 62 df cd bd
       -0.10306186 0.0011805412 -0.00072267157 -0.100523725
000270 21 f1 89 3a 36 a8 cf bd fc 1f d7 bd 05 23 d4 bd
       0.0010524133 -0.101395056 -0.105041474 -0.10358242
000280 9e d0 d2 bd a7 7d 06 3b 5e f2 ca bd d8 35 ce bd
       -0.10293697 0.0020521672 -0.09909509 -0.10068864
000290 62 8e b1 bd 5e 7f 5d ba aa 15 a8 ba b6 47 a3 ba
       -0.086697355 -0.000844946 -0.0012823839 -0.0012457285
0002a0 bf 6e cc bd d3 b2 cd bd f3 86 d3 bd 59 a8 a3 3a
       -0.09982061 -0.10043874 -0.10328474 0.0012486085
0002b0 2c 4c cf bd 01 7a d1 bd 6d 23 e5 3a 55 4d c0 3a
       -0.101219505 -0.102283485 0.0017481871 0.0014671484
0002c0 14 f2 30 ba 5b e9 9f b9 d8 13 d6 bd 4d 4e ce 3a
       -0.00067499396 -0.00030500707 -0.10453004 0.0015739888
0002d0 b7 7f 06 3b eb ca 9d ba 88 39 bf 3a 48 e9 ce bd
       0.0020522901 -0.0012038624 0.0014589289 -0.101030886
0002e0 8e 2b 97 3a 3f 4c ce bd 52 3d d4 bd d3 78 cf bd
       0.0011533366 -0.100731365 -0.103632584 -0.10130467
0002f0 80 08 e0 3a 58 f3 cd bd c7 eb 04 bb 02 92 cf bd
       0.0017092377 -0.1005618 -0.0020282136 -0.10135271
000300 bc 11 d5 3d 75 53 d0 3d 3b d7 03 3a b5 6a d3 3d
       0.10403773 0.10172168 0.0005029325 0.10323087
000310 03 40 de ba 91 1e b1 ba 90 bc dc 3d 01 de d1 3d
       -0.0016956333 -0.0013513138 0.10778153 0.10247422
000320 66 4d d9 3d 4b 7f da 3d 7b 59 de 3d a4 df 83 ba
       0.10610466 0.106688105 0.10856911 -0.0010061157
000330 07 62 bb 3a 1c 8b db 3d de 75 dd 3d b7 7b e0 3d
       0.0014296182 0.107198924 0.10813497 0.10961097
000340 1d 8c dc 3d 8f 0a c7 39 a0 b1 de 3a 9b e0 d7 3d
       0.10768912 0.00037964105 0.0016990192 0.10540887
000350 2a cd 9a b9 a1 cc e1 3d 8a 35 92 39 f0 c4 d6 3d
       -0.00029526028 0.11025358 0.0002788718 0.104867816
000360 35 bb d9 3d 72 27 d9 b8 ab d9 31 ba bd ac dc 3d
       0.1063141 -0.000103547136 -0.0006784449 0.10775135
000370 da 13 95 ba b5 b2 d4 3d d9 02 e2 3d f4 8e dd 3d
       -0.0011373714 0.10385648 0.110356994 0.10818282
000380 09 52 db 3d 87 11 07 ba 20 c4 d4 3d be 4a da 3d
       0.10709006 -0.0005152453 0.103889704 0.10658787
000390 87 b8 bc 3d 56 cd d3 3a 3f 29 6d 3a 81 8d e8 3a
       0.09214883 0.0016159217 0.00090469787 0.0017742367
0003a0 6e e9 d5 3d 14 9c da 3d df b3 d9 3d da 0d 7b ba
       0.10444914 0.10674301 0.10630011 -0.0009576954
0003b0 53 1f d3 3d 56 06 d6 3d bb 8e 0d b9 08 2f 0b bb
       0.10308709 0.10450427 -0.00013499979 -0.002123775
0003c0 4e a3 50 ba fd f7 4d 3a c9 1b dc 3d cc 0c f9 ba
       -0.00079589046 0.00078570825 0.10747487 -0.0019001006
0003d0 3f 62 09 3a 69 b3 8a ba 8f 5b 04 3b 37 b2 d5 3d
       0.0005240775 -0.0010582033 0.0020196175 0.104343824
0003e0 6d a0 06 3a 4f 51 d1 3d d5 8c dd 3d 0d b6 d3 3d
       0.00051355996 0.102205865 0.10817877 0.10337458
0003f0 b6 f5 d5 ba 27 81 d2 3d e6 b3 b9 39 62 b9 d4 3d
       -0.0016323838 0.1027854 0.00035419984 0.103869215

value_head.0.bias f4 [64]
000000 f4 ad 4d 3f 23 06 4e 3f 46 73 4f bf 7f d0 4d 3f
       0.80343556 0.80478114 -0.8103527 0.80396265
000010 5c e7 4d 3f 5c dd 4d 3f 92 7f 4e bf 9d 39 4e 3f
       0.8043115 0.8041589 -0.80663407 0.8055666
000020 c7 3c 4f bf f4 bb 4e bf 1a 1f 4e 3f 49 ad 4f bf
       -0.80952114 -0.80755544 0.8051621 -0.8112379
000030 64 1f 4e 3f d4 56 4f bf 44 96 4f bf 7f be 4d 3f
       0.8051665 -0.80991864 -0.8108866 0.803688
000040 a5 21 4e 3f 43 24 4f bf 8b f6 4d 3f e7 0e 4e 3f
       0.8052009 -0.80914706 0.8045432 0.8049149
000050 ca 08 4e 3f 78 e4 4d 3f 6d 03 4e 3f 94 46 4f bf
       0.8048216 0.8042674 0.8047398 -0.8096707
000060 8d d5 4d 3f f7 83 4f bf 97 1f 4e 3f 05 17 4e 3f
       0.8040398 -0.8106074 0.8051695 0.80503875
000070 7c 94 4f bf ad 9e 4f bf f6 42 4f bf 0d a7 4d 3f
       -0.81085944 -0.81101495 -0.8096155 0.80333024
000080 73 83 4f bf c2 ff 4d 3f b7 0c 4e 3f 9f b2 4f bf
       -0.8105995 0.8046838 0.8048815 -0.8113193
000090 84 0b 4e 3f 48 84 4f bf df 77 4f bf 47 d7 4e bf
       0.8048632 -0.8106122 -0.81042284 -0.8079724
0000a0 61 00 4e 3f dd 9c 4f bf 0c 0b 4e 3f ef e7 4f bf
       0.8046933 -0.8109873 0.80485606 -0.8121328
0000b0 9b fc 4d 3f f9 a1 4f bf ed c6 4d 3f 17 e0 4f bf
       0.8046357 -0.81106526 0.8038166 -0.8120131
0000c0 ae e4 4f bf e0 ba 4e bf 32 8f 4f bf dc 94 4f bf
       -0.8120831 -0.807539 -0.81077874 -0.81086516
0000d0 ae 5d 4f bf a4 e1 4d 3f c8 69 4f bf c8 06 4f bf
       -0.8100232 0.80422425 -0.81020784 -0.8086972
0000e0 88 32 4f bf fc 8b 4e 3f 40 4d 4f bf 52 f8 4d 3f
       -0.8093648 0.8068235 -0.8097725 0.8045703
0000f0 b7 92 4f bf 9e 09 4e 3f 0e 1d 4e 3f 18 06 4f bf
       -0.81083244 0.80483425 0.80513084 -0.80868673

value_head.2.weight f4 [32, 64]
000000 1b c5 3b 3e 4a a3 39 3e f7 56 3e be b3 1c 3c 3e
       0.18336909 0.18128696 -0.18587862 0.18370323
000010 09 4f 3a 3e 80 5d 38 3e 91 28 3c be a4 2e 3b 3e
       0.18194212 0.18004417 -0.1837485 0.1827951
000020 34 5a 3f be cd 58 3b be 89 ab 3c 3e 9a 21 40 be
       -0.18686754 -0.18295594 0.1842481 -0.18762818
000030 31 77 39 3e d0 da 3d be f0 cc 3e be ae 89 3a 3e
       0.18111874 -0.18540502 -0.18632865 0.18216583
000040 a8 65 38 3e 2d e4 3c be ab 68 3c 3e 2c cf 38 3e
       0.18007529 -0.18446417 0.18399303 0.1804778
000050 22 ff 39 3e b6 11 3d 3e 88 3f 3b 3e 9e 5b 40 be
       0.18163732 0.18463787 0.18285954 -0.18784949
000060 5a c3 3b 3e 7a 73 3c be 28 30 3c 3e bb c6 37 3e
       0.1833624 -0.18403426 0.18377745 0.17946903
000070 46 e5 3d be 3f a7 3e be b9 f4 3e be 58 9c 38 3e
       -0.18544492 -0.18618487 -0.18648042 0.1802839
000080 5b 54 40 be 5c e9 3b 3e 4a d4 39 3e 50 c2 3e be
       -0.18782179 0.18350738 0.18147388 -0.18628812
000090 8c 22 3a 3e 16 4f 3f be 4f a2 3f be 23 7e 3d be
       0.18177241 -0.18682513 -0.1871426 -0.18505149
0000a0 98 ae 3a 3e fd 58 3c be 05 6d 3c 3e 90 0f 40 be
       0.18230665 -0.18393321 0.18400963 -0.18755937
0000b0 4f ce 39 3e cf 48 3e be 07 b3 37 3e 55 c3 3c be
       0.18145107 -0.18582462 0.17939387 -0.18433888
0000c0 2b f1 3c be a4 30 3b be 8b 92 3f be 6a 4e 3c be
       -0.18451373 -0.18280274 -0.18708245 -0.18389288
0000d0 00 64 3d be cf 17 3a 3e 00 70 3c be 2a b5 3e be
       -0.18495178 0.18173145 -0.184021 -0.18623796
0000e0 d8 f4 3e be 26 fc 36 3e f0 20 41 be fd 9e 37 3e
       -0.18648088 0.17869624 -0.18860221 0.17931743
0000f0 a9 b9 3d be ec a4 38 3e 94 39 39 3e 11 e1 3d be
       -0.18527855 0.18031663 0.1808837 -0.18542887
000100 89 67 37 3e 65 f3 38 3e 5d b4 3b be 82 1f 39 3e
       0.1791059 0.18061598 -0.18330522 0.18078426
000110 5b 5f 37 3e c3 30 3a 3e b4 ae 3b be 04 47 38 3e
       0.17907469 0.18182664 -0.18328363 0.1799584
000120 3e 2d 3e be a0 aa 3c be ae a1 39 3e c3 fb 3c be
       -0.18571946 -0.18424463 0.18128082 -0.18455414
000130 b9 4a 3b 3e 1a 67 3c be f3 4b 3f be ab ce 3a 3e
       0.18290223 -0.18398705 -0.18681316 0.182429
000140 eb d3 37 3e 70 6a 3e be a9 76 3a 3e 87 9f 3a 3e
       0.17951934 -0.1859529 0.18209328 0.18224917
000150 db cf 3a 3e 5d 2c 3b 3e 5c eb 36 3e 9c ed 3b be
       0.18243353 0.18278642 0.1786322 -0.1835236
000160 78 9a 38 3e 24 e5 3d be 62 66 39 3e 3d 6b 37 3e
       0.18027675 -0.18544441 0.18105462 0.17912002
000170 c5 d3 3b be 41 75 3d be 45 a0 3d be fc e5 38 3e
       -0.18342502 -0.1850176 -0.18518169 0.18056482
000180 e7 5f 3e be 68 8c 3a 3e 21 6f 37 3e a9 e5 3c be
       -0.18591271 0.18217623 0.17913486 -0.18446983
000190 cf cd 39 3e 1f 96 3e be 86 81 3d be a3 e1 3d be
       0.18144916 -0.18611954 -0.1850644 -0.18543105
0001a0 2f 47 39 3e 15 9b 38 be 63 f3 38 3e 91 99 3b be
       0.1809356 -0.18027909 0.18061595 -0.183203
0001b0 72 20 39 3e a4 45 3e be 55 15 39 3e 34 c1 3a be
       0.18078783 -0.18581253 0.18074544 -0.18237764
0001c0 c4 b5 3b be 1d b6 3b be 79 47 40 be d5 87 3f be
       -0.18331057 -0.1833119 -0.18777265 -0.1870416
0001d0 cf 5f 3f be 4a b6 3a 3e d1 e3 3f be 35 9a 3c be
       -0.18688892 0.182336 -0.18739249 -0.184182
0001e0 9e 5d 3d be 9a 9b 38 3e 72 16 3f be e4 4e 37 3e
       -0.18492743 0.18028107 -0.18660906 0.17901188
0001f0 3d a2 3e be 82 c5 39 3e 2d 05 3a 3e 6a 18 3c be
       -0.18616576 0.1814175 0.18166037 -0.18368688
000200 a6 32 38 3e 51 7d 38 3e 14 ad 3c be 1e 35 36 3e
       0.17988071 0.18016554 -0.18425399 0.177937
000210 14 c4 38 3e 65 d9 38 3e 47 ea 38 be 67 aa 39 3e
       0.18043548 0.1805168 -0.1805812 0.1813141
000220 87 64 3d be a1 b8 37 be b8 d1 39 3e c6 5b 3c be
       -0.1849538 -0.17941524 0.18146408 -0.18394384
000230 13 5b 3a 3e 65 f2 3d be 56 48 3f be 53 dc 39 3e
       0.18198805 -0.18549497 -0.18679938 0.18150453
000240 0d d8 37 3e 61 82 3e be 2b 31 38 3e c7 69 39 3e
       0.1795351 -0.18604423 0.17987506 0.18106757
000250 da ae 38 3e de 50 39 3e ab 74 38 3e a0 92 3c be
       0.1803545 0.18097255 0.18013255 -0.18415308
000260 58 bf 39 3e 4d 04 3c be 82 d7 38 3e 1c 18 38 3e
       0.18139398 -0.18361016 0.1805096 0.17977947
000270 c3 a7 3e be 0c 40 3c be 76 37 3e be ce 21 37 3e
       -0.18618684 -0.18383807 -0.18575844 0.17883989
000280 e9 49 3f be 7f f7 37 3e 1f e7 39 3e 95 a0 3e be
       -0.18680538 0.17965506 0.18154572 -0.18615945
000290 a1 77 38 3e ea dd 3e be fa 3d 3d be c2 89 3b be
       0.18014385 -0.18639341 -0.18480673 -0.18314269
0002a0 6e 87 35 3e 05 fa 37 be 1a 48 37 3e 9d c3 3a be
       0.17727444 -0.17966469 0.17898598 -0.18238683
0002b0 02 90 39 3e 05 2a 3c be 02 27 38 3e 88 2a 3b be
       0.18121341 -0.18375404 0.1798363 -0.18277943
0002c0 cf a9 3c be 1f 6d 3e be 23 98 3d be 8c 1d 3d be
       -0.18424152 -0.18596314 -0.18515067 -0.18468302
0002d0 8f 12 3b be 46 ac 3a 3e 6a 80 3b be a7 1c 3d be
       -0.18268798 0.1822978 -0.18310705 -0.18467961
0002e0 9e a8 3f be 9c 81 36 3e ce ba 3e be 26 f6 39 3e
       -0.18716666 0.1782288 -0.18625948 0.18160304
0002f0 dc e6 3b be c0 aa 39 3e 50 10 38 3e 68 c1 3c be
       -0.18349785 0.18131542 0.17974973 -0.18433154
000300 89 3a 37 be ce 3a 33 be 07 99 21 3e 06 e4 36 be
       -0.17893423 -0.17502901 0.15781032 -0.17860422
000310 ad c3 33 be 7a 00 36 be 05 cf 23 3e a7 ba 33 be
       -0.17555113 -0.1777362 0.1599694 -0.17551671
000320 b4 5c 25 3e 08 cd 24 3e b2 16 36 be ac 49 25 3e
       0.16148645 0.16093838 -0.17782095 0.16141385
000330 b3 69 33 be 15 26 23 3e 39 82 25 3e 9d fb 37 be
       -0.1752079 0.15932496 0.16162957 -0.17967077
000340 da 20 36 be d4 af 20 3e 3d 59 35 be 69 17 36 be
       -0.1778597 0.15692073 -0.17709823 -0.17782368
000350 02 61 33 be e9 66 36 be 0a a1 37 be db d4 22 3e
       -0.17517474 -0.17812695 -0.17932525 0.1590151
000360 4d 68 36 be fc 31 26 3e 2a 46 37 be c7 4b 36 be
       -0.17813225 0.16230005 -0.17897859 -0.17802344
000370 a6 a4 23 3e 18 57 25 3e a2 c3 24 3e 3b fe 33 be
       0.15980777 0.16146505 0.16090253 -0.1757745
000380 eb 23 22 3e b1 f5 36 be 4f 5e 37 be 36 5f 23 3e
       0.15834014 -0.17867161 -0.1790707 0.15954289
000390 ef 28 35 be e2 bc 24 3e 21 a9 21 3e 26 72 22 3e
       -0.17691396 0.16087678 0.15787174 0.15863857
0003a0 9b e5 35 be df 27 21 3e 50 fd 36 be 8a e6 22 3e
       -0.17763369 0.15737866 -0.17870069 0.15908256
0003b0 5b 91 37 be cf b9 24 3e e0 4b 36 be 2c 58 24 3e
       -0.17926542 0.16086505 -0.17802382 0.1604926
0003c0 47 d5 22 3e 67 0d 22 3e 86 e3 21 3e c9 16 24 3e
       0.15901671 0.15825425 0.1580945 0.16024317
0003d0 ba b8 25 3e 17 d0 35 be b5 97 21 3e 54 d7 24 3e
       0.16183749 -0.17755161 0.15780528 0.16097766
0003e0 77 58 22 3e 96 46 34 be 04 28 23 3e 26 78 37 be
       0.15854059 -0.17605051 0.15933233 -0.17916927
0003f0 73 03 23 3e d8 5d 38 be 08 06 34 be c1 58 23 3e
       0.15919285 -0.18004549 -0.17580426 0.15951826

value_head.2.bias f4 [32]
000000 00 e0 32 3f ca 69 31 3f 41 b9 30 3f 6c c1 31 bf
       0.69873047 0.69302046 0.69032675 -0.69435763
000010 7c 64 33 3f a6 65 31 3f ab d3 2b bf a3 e8 2d bf
       0.700752 0.6929573 -0.67119855 -0.679331
000020 86 54 31 3f b6 47 31 3f 4a 7b 32 3f db 00 2d bf
       0.692696 0.6925005 0.69719374 -0.6757943
000030 13 ba 31 bf 22 77 30 3f ad 17 33 bf 90 19 32 bf
       -0.6942455 0.6893178 -0.69958 -0.69570255
000040 50 53 31 3f 75 32 32 bf 05 fc 25 bf 1f 1e 31 bf
       0.6926775 -0.6960824 -0.64837676 -0.69186586
000050 3d 77 26 bf 0d d2 30 3f 7a d5 30 3f aa 3d 31 3f
       -0.65025693 0.6907051 0.6907574 0.69234717
000060 f4 e0 30 bf 2f 22 30 bf a6 66 31 bf 6a 16 32 3f
       -0.6909325 -0.6880216 -0.69297254 0.6956545
000070 fc b5 27 bf 27 71 32 3f ab e3 31 3f ec 04 33 bf
       -0.6551206 0.69703907 0.6948802 -0.69929385

value_head.4.weight f4 [1, 32]
000000 2a 2d 48 be 78 e0 49 be d5 d3 4a be e7 71 4c 3e
       -0.19548479 -0.19714534 -0.1980737 0.19965325
000010 13 e3 47 be 2a 57 4a be 99 fd 4e 3e fe a8 4d 3e
       -0.19520216 -0.19759813 0.20213927 0.20083997
000020 a8 c5 4a be 8c 05 4a be 6f 63 48 be dd b2 4e 3e
       -0.19801962 -0.19728678 -0.19569181 0.20185418
000030 87 ce 4c 3e 4f 99 4b be a2 4c 4b 3e 01 4b 4c 3e
       0.20000659 -0.19882701 0.19853452 0.19950487
000040 d7 48 4a be 0f 41 4c 3e d3 91 4d 3e bd 28 4e 3e
       -0.19754349 0.19946693 0.20075159 0.20132728
000050 a0 e9 4d 3e ad 16 4b be 21 42 4b be a2 6c 4a be
       0.20108652 -0.19832869 -0.19849445 -0.19768003
000060 e0 a3 4c 3e 29 b0 4e 3e 32 42 4d 3e 46 f7 48 be
       0.19984388 0.20184387 0.20044783 -0.19625577
000070 40 6a 4d 3e 9c a4 48 be 79 ba 49 be 8b c8 4b 3e
       0.20060062 -0.19594043 -0.1970004 0.1990072

exp_avg f4 [64, 5]
000000 a2 b5 20 b9 8a 3d 99 3a be 33 3b 3d f3 ad bd 38
       -0.00015326453 0.0011691314 0.045703642 9.044623e-05
000010 0f 95 8a b9 5b 5e a9 b9 ee bd 1c 3a e6 85 43 3d
       -0.00026432468 -0.00032304492 0.00059792295 0.047735117
000020 76 7b ee 39 00 02 e0 b8 47 ec 41 3b 36 3d 1d 3b
       0.00045486883 -0.00010681525 0.0029590295 0.0023992783
000030 9a 15 ff 3c 6f 97 0d 3a 19 03 bb b8 5c 07 04 ba
       0.03113823 0.00054012885 -8.917432e-05 -0.0005036497
000040 e1 fa 44 39 84 56 21 3d 08 da cd b9 42 f4 d2 b9
       0.00018785476 0.03938915 -0.00039263093 -0.00040236308
000050 cf c8 a9 3a 5e c1 c2 3a ba 47 23 3d 8d 81 c2 ba
       0.0012953522 0.0014858653 0.039863326 -0.0014839635
000060 91 76 ab b9 04 00 00 00 04 00 00 00 04 00 00 00
       -0.00032704 6e-45 6e-45 6e-45
000070 04 00 00 80 04 00 00 80 f1 b5 0a 3a 55 58 8d 3a
       -6e-45 -6e-45 0.00052913936 0.0010783771
000080 ad be 23 3d af 79 16 b9 fe 38 a0 b9 a9 ae 96 3a
       0.039976764 -0.00014350445 -0.0003056004 0.0011496145
000090 f6 ee e6 3a 84 c6 07 3d c8 2e 06 ba dd a7 35 b8
       0.0017618823 0.033148304 -0.0005118665 -4.3310098e-05
0000a0 df f3 33 3a 30 02 98 3a 8f 92 36 3d 3f d6 30 ba
       0.0006864648 0.0011597332 0.044573363 -0.00067457923
0000b0 90 95 65 b9 ef cc d4 b9 10 80 cb 3a 6b e8 0f 3d
       -0.00021894858 -0.00040588478 0.0015525836 0.03513376
0000c0 ff 77 39 ba 74 2b ce b9 85 fe 28 3a 0f cb c1 3a
       -0.0007075071 -0.00039323757 0.0006446618 0.0014785248
0000d0 dc db 40 3d 57 f7 41 ba 90 48 b2 b9 52 1f d4 3a
       0.047084674 -0.0007399222 -0.0003400487 0.0016183651
0000e0 72 bd cf 3a 45 51 02 3d c2 b0 13 b9 f5 12 41 b9
       0.0015849306 0.031815786 -0.0001408486 -0.00018412976
0000f0 fe 38 f2 39 b6 e8 83 3a 9c 1c 53 3d bc e8 c7 b9
       0.000462003 0.001006386 0.051540956 -0.00038129638
000100 58 e9 84 b9 7f 70 d5 3a 98 93 2e 3a 37 ac 6e bb
       -0.00025350857 0.0016284137 0.00066595664 -0.0036418566
000110 46 d0 fc 37 36 91 82 b9 2f 07 5a 3a a6 55 bc 3a
       3.0137726e-05 -0.00024903723 0.00083171105 0.0014368787
000120 b0 a5 26 3d 38 5e b0 39 94 ed e3 b8 6b 22 67 3a
       0.040685356 0.00033639534 -0.00010868456 0.00088170794
000130 65 61 e1 3a bb 35 a4 3c f9 d4 97 3a ae 2e 58 b9
       0.0017195164 0.020045152 0.0011583857 -0.00020616755
000140 a8 a6 8d 3a e6 53 d8 3a dd 81 51 3d 8a a8 98 ba
       0.0010807114 0.0016504496 0.051149238 -0.0011646908
000150 1f 9f 3b b8 e5 5a 4d 38 69 78 fd 39 95 4f 2e 3d
       -4.4732467e-05 4.896046e-05 0.00048345633 0.042556364
000160 9a 41 f6 39 24 ac de 38 0c 9d 32 3a b1 6e 80 3a
       0.00046969653 0.000106178486 0.0006813563 0.0009798614
000170 f2 aa 13 3d b7 26 a4 b9 31 de 68 b9 a7 6d 02 bb
       0.036051698 -0.00031309362 -0.00022208017 -0.0019901784
000180 17 f7 62 3a 57 22 87 3c 21 ff f0 ba 7b 8a 48 ba
       0.0008658035 0.016495867 -0.0018386581 -0.000765003
000190 16 ae 3f 38 0e 81 de 3a 13 7c 2f 3d 7d c6 02 bb
       4.570008e-05 0.0016975717 0.042842936 -0.0019954734
0001a0 a1 d9 c6 b9 7b 83 fa 3a 32 33 df 3a 06 90 9d 3c
       -0.0003792765 0.001911267 0.0017028807 0.019233715
0001b0 94 6c b1 b7 68 64 62 b9 e9 ec 32 3a 2e ff 0c 3b
       -2.1150605e-05 -0.00021590444 0.00068254635 0.0021514404
0001c0 6b 19 41 3d 60 d1 bd b9 91 d3 f3 b9 e9 73 8b 3a
       0.04714338 -0.00036204886 -0.000465062 0.0010639402
0001d0 c9 6a ca 3a 52 d8 f2 3c e4 83 83 ba d0 3f f3 b9
       0.0015443201 0.029644165 -0.0010033813 -0.00046396116
0001e0 62 a2 16 3a 22 c2 55 3a b4 06 39 3d 0e 15 72 39
       0.0005746243 0.0008154233 0.04517241 0.00023086762
0001f0 6c e2 32 b9 24 82 da b8 36 97 11 3a 63 94 1f 3d
       -0.00017059752 -0.000104192906 0.0005553843 0.038959872
000200 5d 0b c2 38 ee 3a ad b9 c1 e8 5e b8 12 2f 22 3a
       9.2527574e-05 -0.00033041037 -5.3145694e-05 0.00061868236
000210 a5 53 32 3d e1 15 94 ba 04 da 97 b9 fc eb 65 b9
       0.0435368 -0.0011298024 -0.000289634 -0.00021927053
000220 36 f0 97 3a 6e a1 3c 3d d3 b6 83 39 89 4c bf b9
       0.0011591974 0.04605239 0.00025122482 -0.00036487382
000230 ff 7c 8b ba e0 61 b0 39 cd b1 ec 3b 58 83 cc 39
       -0.001064211 0.00033642258 0.007223344 0.0003900777
000240 02 81 f1 b8 2b de de 39 40 e7 10 3a 13 76 2e 3d
       -0.00011515805 0.00042508668 0.0005527623 0.042593073
000250 38 ac 50 ba 42 d3 3c b9 25 78 45 ba 9d 41 02 3a
       -0.0007960233 -0.00018007777 -0.00075328565 0.00049688836
000260 75 27 24 3c 5b 6f 9e 3a cb d3 9a b9 71 90 27 3a
       0.010019173 0.001208763 -0.00029530967 0.0006392068
000270 26 45 5f 3a 45 59 36 3d 9c 57 0d ba 7a 64 58 b9
       0.0008517079 0.044518728 -0.0005391778 -0.00020636796
000280 e5 1b 08 ba 34 4f 91 39 76 d7 38 3d 4a e0 b4 b9
       -0.0005192145 0.00027715566 0.045127355 -0.00034499384
000290 88 3e 9e b9 47 6d 5a b9 a8 7f de 3a 04 06 20 3d
       -0.00030182698 -0.00020830809 0.00169753 0.039068237
0002a0 e4 ad a9 ba 86 13 03 b9 a9 b9 36 ba f4 c9 20 3a
       -0.00129455 -0.00012500407 -0.00069704145 0.0006133609
0002b0 6b 20 46 3d d1 c2 80 b9 64 d0 bd b9 dc 18 e7 3a
       0.04837076 -0.00024559212 -0.00036204152 0.001763131
0002c0 13 27 c3 3a 8c e0 d2 3b 1a 89 44 39 77 c5 0b ba
       0.0014888964 0.0064354595 0.00018743091 -0.0005331854
0002d0 b6 26 e7 39 ef 38 26 3a a9 9d 4a 3d 59 95 04 ba
       0.00044088595 0.0006340881 0.049466763 -0.0005057655
0002e0 f9 16 8b b9 bc ab f1 39 7c a4 2a 3a 56 17 27 3d
       -0.00026529262 0.00046095054 0.00065094954 0.04079374
0002f0 00 87 f4 b8 36 2a 65 b9 34 18 23 3a 11 2d cc 3a
       -0.000116599724 -0.00021854867 0.0006221563 0.0015577396
000300 ff 42 26 3d 9c 6d e6 39 6c 0a 4a b9 5a 36 14 38
       0.040591236 0.00043950684 -0.00019268104 3.533657e-05
000310 ee bc d6 3a 43 e6 27 3d 82 ab 9e 3a 1e 0c d1 b9
       0.001638321 0.04099108 0.0012105557 -0.00039872614
000320 04 00 00 80 04 00 00 00 04 00 00 00 04 00 00 00
       -6e-45 6e-45 6e-45 6e-45
000330 04 00 00 80 28 f9 35 3a 7e 7a 35 3a 71 2e 34 3d
       -6e-45 0.0006941729 0.0006922855 0.043989602
000340 fd a3 a0 38 e5 69 36 b9 46 ca 6b 39 e5 ab 9d 3a
       7.65994e-05 -0.00017396321 0.00022486699 0.0012029378
000350 ed f8 3d 3d 99 0e e7 ba 0e 3c c6 b9 86 e4 00 3a
       0.046379972 -0.0017628252 -0.00037810247 0.0004916865
000360 15 7a 2e 3a 44 ea fc 3c e3 6d d9 b9 b9 ed 33 b9
       0.0006655765 0.030873425 -0.00041471337 -0.00017159329
000370 c0 d7 34 38 60 6a e5 38 91 50 48 3d d2 a0 51 b9
       4.3116277e-05 0.00010939385 0.04890496 -0.00019991703
000380 06 78 14 37 06 34 ae b8 54 43 9c 3a bf 41 32 3d
       8.849433e-06 -8.306657e-05 0.0011921921 0.04351973
000390 ce e8 3a ba 71 48 a8 b9 04 00 00 00 04 00 00 00
       -0.00071300275 -0.0003209743 6e-45 6e-45
0003a0 04 00 00 00 04 00 00 00 04 00 00 80 46 a0 8d 3a
       6e-45 6e-45 -6e-45 0.0010805211
0003b0 4b 61 be 3a 2c 66 2a 3d 7a 38 a0 ba d7 30 8d b9
       0.0014524845 0.041601345 -0.0012223863 -0.00026930004
0003c0 68 47 c6 b8 be 40 63 3a 75 37 21 3d 3d 17 65 ba
       -9.454676e-05 0.000866901 0.03935953 -0.00087391195
0003d0 0d 5f 26 b9 57 9c e1 3a ae 39 eb 3a 8d 51 b2 3b
       -0.00015866403 0.0017212731 0.0017946267 0.0054418505
0003e0 61 a1 e5 39 0f 1a 8d b9 ff c1 2c 3a f8 4c 93 3a
       0.0004379852 -0.0002691303 0.0006590187 0.0011238148
0003f0 a7 51 24 3d 5b 05 cc b9 76 e0 f4 b8 e9 69 1c 3a
       0.040116932 -0.00038913902 -0.00011676636 0.00059667096
